/home/newub/w/PersonaLive/.venv/lib/python3.10/site-packages/transformers/utils/generic.py:441: FutureWarning: `torch.utils._pytree._register_pytree_node` is deprecated. Please use `torch.utils._pytree.register_pytree_node` instead.
  _torch_pytree._register_pytree_node(
/home/newub/w/PersonaLive/.venv/lib/python3.10/site-packages/transformers/utils/generic.py:309: FutureWarning: `torch.utils._pytree._register_pytree_node` is deprecated. Please use `torch.utils._pytree.register_pytree_node` instead.
  _torch_pytree._register_pytree_node(
/home/newub/w/PersonaLive/.venv/lib/python3.10/site-packages/diffusers/models/dual_transformer_2d.py:20: FutureWarning: `DualTransformer2DModel` is deprecated and will be removed in version 0.29. Importing `DualTransformer2DModel` from `diffusers.models.dual_transformer_2d` is deprecated and this will be removed in a future version. Please use `from diffusers.models.transformers.dual_transformer_2d import DualTransformer2DModel`, instead.
  deprecate("DualTransformer2DModel", "0.29", deprecation_message)
[bench] building pipeline mode=torch_trt
Some weights of the model checkpoint were not used when initializing UNet2DConditionModel: 
 ['conv_norm_out.weight, conv_norm_out.bias, conv_out.weight, conv_out.bias']
Neither TRTLLM_PLUGIN_PATH is set nor is it directed to download the shared library. Please set either of the two to use TRT-LLM libraries in torchTRT
[05/04/2026-05:17:24] [TRT] [W] Functionality provided through tensorrt.plugin module is experimental.
Unable to import quantization op. Please install modelopt library (https://github.com/NVIDIA/TensorRT-Model-Optimizer?tab=readme-ov-file#installation) to add support for compiling quantized models
Unable to import quantize op. Please install modelopt library (https://github.com/NVIDIA/TensorRT-Model-Optimizer?tab=readme-ov-file#installation) to add support for compiling quantized models
[bench] preparing 100 driving frames
WARNING: All log messages before absl::InitializeLog() is called are written to STDERR
I0000 00:00:1777889845.378486  264813 gl_context_egl.cc:85] Successfully initialized EGL. Major : 1 Minor: 5
I0000 00:00:1777889845.424155  272147 gl_context.cc:369] GL version: 3.2 (OpenGL ES 3.2 NVIDIA 590.48.01), renderer: NVIDIA GeForce RTX 5090/PCIe/SSE2
INFO: Created TensorFlow Lite XNNPACK delegate for CPU.
W0000 00:00:1777889845.433558  272146 inference_feedback_manager.cc:114] Feedback manager requires a model with a single signature inference. Disabling support for feedback tensors.
W0000 00:00:1777889845.439852  272139 inference_feedback_manager.cc:114] Feedback manager requires a model with a single signature inference. Disabling support for feedback tensors.
W0000 00:00:1777889845.441571  272137 landmark_projection_calculator.cc:186] Using NORM_RECT without IMAGE_DIMENSIONS is only supported for the square ROI. Provide IMAGE_DIMENSIONS or use PROJECTION_MATRIX.
[bench] torch_trt probe pass with 16 frames (capturing input shapes)
  0%|          | 0/7 [00:00<?, ?it/s] 14%|█▍        | 1/7 [00:02<00:16,  2.78s/it] 29%|██▊       | 2/7 [00:03<00:06,  1.29s/it] 43%|████▎     | 3/7 [00:03<00:03,  1.23it/s] 57%|█████▋    | 4/7 [00:03<00:01,  1.57it/s] 71%|███████▏  | 5/7 [00:03<00:01,  1.86it/s] 86%|████████▌ | 6/7 [00:04<00:00,  2.12it/s]100%|██████████| 7/7 [00:04<00:00,  2.33it/s]100%|██████████| 7/7 [00:04<00:00,  1.49it/s]
[bench] captured denoising_unet: ([((1, 4, 16, 64, 64), 'torch.float16'), ((16,), 'torch.int64')], {'encoder_hidden_states': 'list', 'pose_cond_fea': ((1, 320, 16, 64, 64), 'torch.float16'), 'return_dict': 'bool'})
[bench] captured reference_unet: ([((1, 4, 64, 64), 'torch.float16'), ((1,), 'torch.float32')], {'encoder_hidden_states': ((1, 1, 768), 'torch.float16'), 'return_dict': 'bool'})
[bench] captured vae.decode: z=(4, 4, 64, 64)/torch.float16 args=[] kwargs=[]
[bench] ttrt.compile denoising_unet ...
[bench] ttrt.compile denoising_unet: FAILED — ValueError: Tensor does not have a supported memory format, supported formats are contiguous or channel_last
[bench] ttrt.compile reference_unet ...
W0504 05:17:33.297000 264813 .venv/lib/python3.10/site-packages/torch/fx/experimental/symbolic_shapes.py:8255] Unable to find user code corresponding to {u0}



def forward(self, arg0_1: "f16[320, 4, 3, 3]", arg1_1: "f16[320]", arg2_1: "f16[1280, 320]", arg3_1: "f16[1280]", arg4_1: "f16[1280, 1280]", arg5_1: "f16[1280]", arg6_1: "f16[320]", arg7_1: "f16[320]", arg8_1: "f16[320, 320, 1, 1]", arg9_1: "f16[320]", arg10_1: "f16[320]", arg11_1: "f16[320]", arg12_1: "f16[320, 320]", arg13_1: "f16[320, 320]", arg14_1: "f16[320, 320]", arg15_1: "f16[320, 320]", arg16_1: "f16[320]", arg17_1: "f16[320]", arg18_1: "f16[320]", arg19_1: "f16[320, 320]", arg20_1: "f16[320, 768]", arg21_1: "f16[320, 768]", arg22_1: "f16[320, 320]", arg23_1: "f16[320]", arg24_1: "f16[320]", arg25_1: "f16[320]", arg26_1: "f16[2560, 320]", arg27_1: "f16[2560]", arg28_1: "f16[320, 1280]", arg29_1: "f16[320]", arg30_1: "f16[320, 320, 1, 1]", arg31_1: "f16[320]", arg32_1: "f16[320]", arg33_1: "f16[320]", arg34_1: "f16[320, 320, 1, 1]", arg35_1: "f16[320]", arg36_1: "f16[320]", arg37_1: "f16[320]", arg38_1: "f16[320, 320]", arg39_1: "f16[320, 320]", arg40_1: "f16[320, 320]", arg41_1: "f16[320, 320]", arg42_1: "f16[320]", arg43_1: "f16[320]", arg44_1: "f16[320]", arg45_1: "f16[320, 320]", arg46_1: "f16[320, 768]", arg47_1: "f16[320, 768]", arg48_1: "f16[320, 320]", arg49_1: "f16[320]", arg50_1: "f16[320]", arg51_1: "f16[320]", arg52_1: "f16[2560, 320]", arg53_1: "f16[2560]", arg54_1: "f16[320, 1280]", arg55_1: "f16[320]", arg56_1: "f16[320, 320, 1, 1]", arg57_1: "f16[320]", arg58_1: "f16[320]", arg59_1: "f16[320]", arg60_1: "f16[320, 320, 3, 3]", arg61_1: "f16[320]", arg62_1: "f16[320, 1280]", arg63_1: "f16[320]", arg64_1: "f16[320]", arg65_1: "f16[320]", arg66_1: "f16[320, 320, 3, 3]", arg67_1: "f16[320]", arg68_1: "f16[320]", arg69_1: "f16[320]", arg70_1: "f16[320, 320, 3, 3]", arg71_1: "f16[320]", arg72_1: "f16[320, 1280]", arg73_1: "f16[320]", arg74_1: "f16[320]", arg75_1: "f16[320]", arg76_1: "f16[320, 320, 3, 3]", arg77_1: "f16[320]", arg78_1: "f16[320, 320, 3, 3]", arg79_1: "f16[320]", arg80_1: "f16[640]", arg81_1: "f16[640]", arg82_1: "f16[640, 640, 1, 1]", arg83_1: "f16[640]", arg84_1: "f16[640]", arg85_1: "f16[640]", arg86_1: "f16[640, 640]", arg87_1: "f16[640, 640]", arg88_1: "f16[640, 640]", arg89_1: "f16[640, 640]", arg90_1: "f16[640]", arg91_1: "f16[640]", arg92_1: "f16[640]", arg93_1: "f16[640, 640]", arg94_1: "f16[640, 768]", arg95_1: "f16[640, 768]", arg96_1: "f16[640, 640]", arg97_1: "f16[640]", arg98_1: "f16[640]", arg99_1: "f16[640]", arg100_1: "f16[5120, 640]", arg101_1: "f16[5120]", arg102_1: "f16[640, 2560]", arg103_1: "f16[640]", arg104_1: "f16[640, 640, 1, 1]", arg105_1: "f16[640]", arg106_1: "f16[640]", arg107_1: "f16[640]", arg108_1: "f16[640, 640, 1, 1]", arg109_1: "f16[640]", arg110_1: "f16[640]", arg111_1: "f16[640]", arg112_1: "f16[640, 640]", arg113_1: "f16[640, 640]", arg114_1: "f16[640, 640]", arg115_1: "f16[640, 640]", arg116_1: "f16[640]", arg117_1: "f16[640]", arg118_1: "f16[640]", arg119_1: "f16[640, 640]", arg120_1: "f16[640, 768]", arg121_1: "f16[640, 768]", arg122_1: "f16[640, 640]", arg123_1: "f16[640]", arg124_1: "f16[640]", arg125_1: "f16[640]", arg126_1: "f16[5120, 640]", arg127_1: "f16[5120]", arg128_1: "f16[640, 2560]", arg129_1: "f16[640]", arg130_1: "f16[640, 640, 1, 1]", arg131_1: "f16[640]", arg132_1: "f16[320]", arg133_1: "f16[320]", arg134_1: "f16[640, 320, 3, 3]", arg135_1: "f16[640]", arg136_1: "f16[640, 1280]", arg137_1: "f16[640]", arg138_1: "f16[640]", arg139_1: "f16[640]", arg140_1: "f16[640, 640, 3, 3]", arg141_1: "f16[640]", arg142_1: "f16[640, 320, 1, 1]", arg143_1: "f16[640]", arg144_1: "f16[640]", arg145_1: "f16[640]", arg146_1: "f16[640, 640, 3, 3]", arg147_1: "f16[640]", arg148_1: "f16[640, 1280]", arg149_1: "f16[640]", arg150_1: "f16[640]", arg151_1: "f16[640]", arg152_1: "f16[640, 640, 3, 3]", arg153_1: "f16[640]", arg154_1: "f16[640, 640, 3, 3]", arg155_1: "f16[640]", arg156_1: "f16[1280]", arg157_1: "f16[1280]", arg158_1: "f16[1280, 1280, 1, 1]", arg159_1: "f16[1280]", arg160_1: "f16[1280]", arg161_1: "f16[1280]", arg162_1: "f16[1280, 1280]", arg163_1: "f16[1280, 1280]", arg164_1: "f16[1280, 1280]", arg165_1: "f16[1280, 1280]", arg166_1: "f16[1280]", arg167_1: "f16[1280]", arg168_1: "f16[1280]", arg169_1: "f16[1280, 1280]", arg170_1: "f16[1280, 768]", arg171_1: "f16[1280, 768]", arg172_1: "f16[1280, 1280]", arg173_1: "f16[1280]", arg174_1: "f16[1280]", arg175_1: "f16[1280]", arg176_1: "f16[10240, 1280]", arg177_1: "f16[10240]", arg178_1: "f16[1280, 5120]", arg179_1: "f16[1280]", arg180_1: "f16[1280, 1280, 1, 1]", arg181_1: "f16[1280]", arg182_1: "f16[1280]", arg183_1: "f16[1280]", arg184_1: "f16[1280, 1280, 1, 1]", arg185_1: "f16[1280]", arg186_1: "f16[1280]", arg187_1: "f16[1280]", arg188_1: "f16[1280, 1280]", arg189_1: "f16[1280, 1280]", arg190_1: "f16[1280, 1280]", arg191_1: "f16[1280, 1280]", arg192_1: "f16[1280]", arg193_1: "f16[1280]", arg194_1: "f16[1280]", arg195_1: "f16[1280, 1280]", arg196_1: "f16[1280, 768]", arg197_1: "f16[1280, 768]", arg198_1: "f16[1280, 1280]", arg199_1: "f16[1280]", arg200_1: "f16[1280]", arg201_1: "f16[1280]", arg202_1: "f16[10240, 1280]", arg203_1: "f16[10240]", arg204_1: "f16[1280, 5120]", arg205_1: "f16[1280]", arg206_1: "f16[1280, 1280, 1, 1]", arg207_1: "f16[1280]", arg208_1: "f16[640]", arg209_1: "f16[640]", arg210_1: "f16[1280, 640, 3, 3]", arg211_1: "f16[1280]", arg212_1: "f16[1280, 1280]", arg213_1: "f16[1280]", arg214_1: "f16[1280]", arg215_1: "f16[1280]", arg216_1: "f16[1280, 1280, 3, 3]", arg217_1: "f16[1280]", arg218_1: "f16[1280, 640, 1, 1]", arg219_1: "f16[1280]", arg220_1: "f16[1280]", arg221_1: "f16[1280]", arg222_1: "f16[1280, 1280, 3, 3]", arg223_1: "f16[1280]", arg224_1: "f16[1280, 1280]", arg225_1: "f16[1280]", arg226_1: "f16[1280]", arg227_1: "f16[1280]", arg228_1: "f16[1280, 1280, 3, 3]", arg229_1: "f16[1280]", arg230_1: "f16[1280, 1280, 3, 3]", arg231_1: "f16[1280]", arg232_1: "f16[1280]", arg233_1: "f16[1280]", arg234_1: "f16[1280, 1280, 3, 3]", arg235_1: "f16[1280]", arg236_1: "f16[1280, 1280]", arg237_1: "f16[1280]", arg238_1: "f16[1280]", arg239_1: "f16[1280]", arg240_1: "f16[1280, 1280, 3, 3]", arg241_1: "f16[1280]", arg242_1: "f16[1280]", arg243_1: "f16[1280]", arg244_1: "f16[1280, 1280, 3, 3]", arg245_1: "f16[1280]", arg246_1: "f16[1280, 1280]", arg247_1: "f16[1280]", arg248_1: "f16[1280]", arg249_1: "f16[1280]", arg250_1: "f16[1280, 1280, 3, 3]", arg251_1: "f16[1280]", arg252_1: "f16[2560]", arg253_1: "f16[2560]", arg254_1: "f16[1280, 2560, 3, 3]", arg255_1: "f16[1280]", arg256_1: "f16[1280, 1280]", arg257_1: "f16[1280]", arg258_1: "f16[1280]", arg259_1: "f16[1280]", arg260_1: "f16[1280, 1280, 3, 3]", arg261_1: "f16[1280]", arg262_1: "f16[1280, 2560, 1, 1]", arg263_1: "f16[1280]", arg264_1: "f16[2560]", arg265_1: "f16[2560]", arg266_1: "f16[1280, 2560, 3, 3]", arg267_1: "f16[1280]", arg268_1: "f16[1280, 1280]", arg269_1: "f16[1280]", arg270_1: "f16[1280]", arg271_1: "f16[1280]", arg272_1: "f16[1280, 1280, 3, 3]", arg273_1: "f16[1280]", arg274_1: "f16[1280, 2560, 1, 1]", arg275_1: "f16[1280]", arg276_1: "f16[2560]", arg277_1: "f16[2560]", arg278_1: "f16[1280, 2560, 3, 3]", arg279_1: "f16[1280]", arg280_1: "f16[1280, 1280]", arg281_1: "f16[1280]", arg282_1: "f16[1280]", arg283_1: "f16[1280]", arg284_1: "f16[1280, 1280, 3, 3]", arg285_1: "f16[1280]", arg286_1: "f16[1280, 2560, 1, 1]", arg287_1: "f16[1280]", arg288_1: "f16[1280, 1280, 3, 3]", arg289_1: "f16[1280]", arg290_1: "f16[1280]", arg291_1: "f16[1280]", arg292_1: "f16[1280, 1280, 1, 1]", arg293_1: "f16[1280]", arg294_1: "f16[1280]", arg295_1: "f16[1280]", arg296_1: "f16[1280, 1280]", arg297_1: "f16[1280, 1280]", arg298_1: "f16[1280, 1280]", arg299_1: "f16[1280, 1280]", arg300_1: "f16[1280]", arg301_1: "f16[1280]", arg302_1: "f16[1280]", arg303_1: "f16[1280, 1280]", arg304_1: "f16[1280, 768]", arg305_1: "f16[1280, 768]", arg306_1: "f16[1280, 1280]", arg307_1: "f16[1280]", arg308_1: "f16[1280]", arg309_1: "f16[1280]", arg310_1: "f16[10240, 1280]", arg311_1: "f16[10240]", arg312_1: "f16[1280, 5120]", arg313_1: "f16[1280]", arg314_1: "f16[1280, 1280, 1, 1]", arg315_1: "f16[1280]", arg316_1: "f16[1280]", arg317_1: "f16[1280]", arg318_1: "f16[1280, 1280, 1, 1]", arg319_1: "f16[1280]", arg320_1: "f16[1280]", arg321_1: "f16[1280]", arg322_1: "f16[1280, 1280]", arg323_1: "f16[1280, 1280]", arg324_1: "f16[1280, 1280]", arg325_1: "f16[1280, 1280]", arg326_1: "f16[1280]", arg327_1: "f16[1280]", arg328_1: "f16[1280]", arg329_1: "f16[1280, 1280]", arg330_1: "f16[1280, 768]", arg331_1: "f16[1280, 768]", arg332_1: "f16[1280, 1280]", arg333_1: "f16[1280]", arg334_1: "f16[1280]", arg335_1: "f16[1280]", arg336_1: "f16[10240, 1280]", arg337_1: "f16[10240]", arg338_1: "f16[1280, 5120]", arg339_1: "f16[1280]", arg340_1: "f16[1280, 1280, 1, 1]", arg341_1: "f16[1280]", arg342_1: "f16[1280]", arg343_1: "f16[1280]", arg344_1: "f16[1280, 1280, 1, 1]", arg345_1: "f16[1280]", arg346_1: "f16[1280]", arg347_1: "f16[1280]", arg348_1: "f16[1280, 1280]", arg349_1: "f16[1280, 1280]", arg350_1: "f16[1280, 1280]", arg351_1: "f16[1280, 1280]", arg352_1: "f16[1280]", arg353_1: "f16[1280]", arg354_1: "f16[1280]", arg355_1: "f16[1280, 1280]", arg356_1: "f16[1280, 768]", arg357_1: "f16[1280, 768]", arg358_1: "f16[1280, 1280]", arg359_1: "f16[1280]", arg360_1: "f16[1280]", arg361_1: "f16[1280]", arg362_1: "f16[10240, 1280]", arg363_1: "f16[10240]", arg364_1: "f16[1280, 5120]", arg365_1: "f16[1280]", arg366_1: "f16[1280, 1280, 1, 1]", arg367_1: "f16[1280]", arg368_1: "f16[2560]", arg369_1: "f16[2560]", arg370_1: "f16[1280, 2560, 3, 3]", arg371_1: "f16[1280]", arg372_1: "f16[1280, 1280]", arg373_1: "f16[1280]", arg374_1: "f16[1280]", arg375_1: "f16[1280]", arg376_1: "f16[1280, 1280, 3, 3]", arg377_1: "f16[1280]", arg378_1: "f16[1280, 2560, 1, 1]", arg379_1: "f16[1280]", arg380_1: "f16[2560]", arg381_1: "f16[2560]", arg382_1: "f16[1280, 2560, 3, 3]", arg383_1: "f16[1280]", arg384_1: "f16[1280, 1280]", arg385_1: "f16[1280]", arg386_1: "f16[1280]", arg387_1: "f16[1280]", arg388_1: "f16[1280, 1280, 3, 3]", arg389_1: "f16[1280]", arg390_1: "f16[1280, 2560, 1, 1]", arg391_1: "f16[1280]", arg392_1: "f16[1920]", arg393_1: "f16[1920]", arg394_1: "f16[1280, 1920, 3, 3]", arg395_1: "f16[1280]", arg396_1: "f16[1280, 1280]", arg397_1: "f16[1280]", arg398_1: "f16[1280]", arg399_1: "f16[1280]", arg400_1: "f16[1280, 1280, 3, 3]", arg401_1: "f16[1280]", arg402_1: "f16[1280, 1920, 1, 1]", arg403_1: "f16[1280]", arg404_1: "f16[1280, 1280, 3, 3]", arg405_1: "f16[1280]", arg406_1: "f16[640]", arg407_1: "f16[640]", arg408_1: "f16[640, 640, 1, 1]", arg409_1: "f16[640]", arg410_1: "f16[640]", arg411_1: "f16[640]", arg412_1: "f16[640, 640]", arg413_1: "f16[640, 640]", arg414_1: "f16[640, 640]", arg415_1: "f16[640, 640]", arg416_1: "f16[640]", arg417_1: "f16[640]", arg418_1: "f16[640]", arg419_1: "f16[640, 640]", arg420_1: "f16[640, 768]", arg421_1: "f16[640, 768]", arg422_1: "f16[640, 640]", arg423_1: "f16[640]", arg424_1: "f16[640]", arg425_1: "f16[640]", arg426_1: "f16[5120, 640]", arg427_1: "f16[5120]", arg428_1: "f16[640, 2560]", arg429_1: "f16[640]", arg430_1: "f16[640, 640, 1, 1]", arg431_1: "f16[640]", arg432_1: "f16[640]", arg433_1: "f16[640]", arg434_1: "f16[640, 640, 1, 1]", arg435_1: "f16[640]", arg436_1: "f16[640]", arg437_1: "f16[640]", arg438_1: "f16[640, 640]", arg439_1: "f16[640, 640]", arg440_1: "f16[640, 640]", arg441_1: "f16[640, 640]", arg442_1: "f16[640]", arg443_1: "f16[640]", arg444_1: "f16[640]", arg445_1: "f16[640, 640]", arg446_1: "f16[640, 768]", arg447_1: "f16[640, 768]", arg448_1: "f16[640, 640]", arg449_1: "f16[640]", arg450_1: "f16[640]", arg451_1: "f16[640]", arg452_1: "f16[5120, 640]", arg453_1: "f16[5120]", arg454_1: "f16[640, 2560]", arg455_1: "f16[640]", arg456_1: "f16[640, 640, 1, 1]", arg457_1: "f16[640]", arg458_1: "f16[640]", arg459_1: "f16[640]", arg460_1: "f16[640, 640, 1, 1]", arg461_1: "f16[640]", arg462_1: "f16[640]", arg463_1: "f16[640]", arg464_1: "f16[640, 640]", arg465_1: "f16[640, 640]", arg466_1: "f16[640, 640]", arg467_1: "f16[640, 640]", arg468_1: "f16[640]", arg469_1: "f16[640]", arg470_1: "f16[640]", arg471_1: "f16[640, 640]", arg472_1: "f16[640, 768]", arg473_1: "f16[640, 768]", arg474_1: "f16[640, 640]", arg475_1: "f16[640]", arg476_1: "f16[640]", arg477_1: "f16[640]", arg478_1: "f16[5120, 640]", arg479_1: "f16[5120]", arg480_1: "f16[640, 2560]", arg481_1: "f16[640]", arg482_1: "f16[640, 640, 1, 1]", arg483_1: "f16[640]", arg484_1: "f16[1920]", arg485_1: "f16[1920]", arg486_1: "f16[640, 1920, 3, 3]", arg487_1: "f16[640]", arg488_1: "f16[640, 1280]", arg489_1: "f16[640]", arg490_1: "f16[640]", arg491_1: "f16[640]", arg492_1: "f16[640, 640, 3, 3]", arg493_1: "f16[640]", arg494_1: "f16[640, 1920, 1, 1]", arg495_1: "f16[640]", arg496_1: "f16[1280]", arg497_1: "f16[1280]", arg498_1: "f16[640, 1280, 3, 3]", arg499_1: "f16[640]", arg500_1: "f16[640, 1280]", arg501_1: "f16[640]", arg502_1: "f16[640]", arg503_1: "f16[640]", arg504_1: "f16[640, 640, 3, 3]", arg505_1: "f16[640]", arg506_1: "f16[640, 1280, 1, 1]", arg507_1: "f16[640]", arg508_1: "f16[960]", arg509_1: "f16[960]", arg510_1: "f16[640, 960, 3, 3]", arg511_1: "f16[640]", arg512_1: "f16[640, 1280]", arg513_1: "f16[640]", arg514_1: "f16[640]", arg515_1: "f16[640]", arg516_1: "f16[640, 640, 3, 3]", arg517_1: "f16[640]", arg518_1: "f16[640, 960, 1, 1]", arg519_1: "f16[640]", arg520_1: "f16[640, 640, 3, 3]", arg521_1: "f16[640]", arg522_1: "f16[320]", arg523_1: "f16[320]", arg524_1: "f16[320, 320, 1, 1]", arg525_1: "f16[320]", arg526_1: "f16[320]", arg527_1: "f16[320]", arg528_1: "f16[320, 320]", arg529_1: "f16[320, 320]", arg530_1: "f16[320, 320]", arg531_1: "f16[320, 320]", arg532_1: "f16[320]", arg533_1: "f16[320]", arg534_1: "f16[320]", arg535_1: "f16[320, 320]", arg536_1: "f16[320, 768]", arg537_1: "f16[320, 768]", arg538_1: "f16[320, 320]", arg539_1: "f16[320]", arg540_1: "f16[320]", arg541_1: "f16[320]", arg542_1: "f16[2560, 320]", arg543_1: "f16[2560]", arg544_1: "f16[320, 1280]", arg545_1: "f16[320]", arg546_1: "f16[320, 320, 1, 1]", arg547_1: "f16[320]", arg548_1: "f16[320]", arg549_1: "f16[320]", arg550_1: "f16[320, 320, 1, 1]", arg551_1: "f16[320]", arg552_1: "f16[320]", arg553_1: "f16[320]", arg554_1: "f16[320, 320]", arg555_1: "f16[320, 320]", arg556_1: "f16[320, 320]", arg557_1: "f16[320, 320]", arg558_1: "f16[320]", arg559_1: "f16[320]", arg560_1: "f16[320]", arg561_1: "f16[320, 320]", arg562_1: "f16[320, 768]", arg563_1: "f16[320, 768]", arg564_1: "f16[320, 320]", arg565_1: "f16[320]", arg566_1: "f16[320]", arg567_1: "f16[320]", arg568_1: "f16[2560, 320]", arg569_1: "f16[2560]", arg570_1: "f16[320, 1280]", arg571_1: "f16[320]", arg572_1: "f16[320, 320, 1, 1]", arg573_1: "f16[320]", arg574_1: "f16[320]", arg575_1: "f16[320]", arg576_1: "f16[320, 320, 1, 1]", arg577_1: "f16[320]", arg578_1: "f16[320]", arg579_1: "f16[320]", arg580_1: "f16[320, 320]", arg581_1: "f16[320, 320]", arg582_1: "f16[320, 320]", arg583_1: "f16[320, 320]", arg584_1: "f16[320]", arg585_1: "f16[320]", arg586_1: "f16[320]", arg587_1: "f16[320, 320]", arg588_1: "f16[320, 768]", arg589_1: "f16[320, 768]", arg590_1: "f16[320, 320]", arg591_1: "f16[320]", arg592_1: "f16[320]", arg593_1: "f16[320]", arg594_1: "f16[2560, 320]", arg595_1: "f16[2560]", arg596_1: "f16[320, 1280]", arg597_1: "f16[320]", arg598_1: "f16[320, 320, 1, 1]", arg599_1: "f16[320]", arg600_1: "f16[960]", arg601_1: "f16[960]", arg602_1: "f16[320, 960, 3, 3]", arg603_1: "f16[320]", arg604_1: "f16[320, 1280]", arg605_1: "f16[320]", arg606_1: "f16[320]", arg607_1: "f16[320]", arg608_1: "f16[320, 320, 3, 3]", arg609_1: "f16[320]", arg610_1: "f16[320, 960, 1, 1]", arg611_1: "f16[320]", arg612_1: "f16[640]", arg613_1: "f16[640]", arg614_1: "f16[320, 640, 3, 3]", arg615_1: "f16[320]", arg616_1: "f16[320, 1280]", arg617_1: "f16[320]", arg618_1: "f16[320]", arg619_1: "f16[320]", arg620_1: "f16[320, 320, 3, 3]", arg621_1: "f16[320]", arg622_1: "f16[320, 640, 1, 1]", arg623_1: "f16[320]", arg624_1: "f16[640]", arg625_1: "f16[640]", arg626_1: "f16[320, 640, 3, 3]", arg627_1: "f16[320]", arg628_1: "f16[320, 1280]", arg629_1: "f16[320]", arg630_1: "f16[320]", arg631_1: "f16[320]", arg632_1: "f16[320, 320, 3, 3]", arg633_1: "f16[320]", arg634_1: "f16[320, 640, 1, 1]", arg635_1: "f16[320]", arg636_1: "f16[1280]", arg637_1: "f16[1280]", arg638_1: "f16[1280, 1280, 1, 1]", arg639_1: "f16[1280]", arg640_1: "f16[1280]", arg641_1: "f16[1280]", arg642_1: "f16[1280, 1280]", arg643_1: "f16[1280, 1280]", arg644_1: "f16[1280, 1280]", arg645_1: "f16[1280, 1280]", arg646_1: "f16[1280]", arg647_1: "f16[1280]", arg648_1: "f16[1280]", arg649_1: "f16[1280, 1280]", arg650_1: "f16[1280, 768]", arg651_1: "f16[1280, 768]", arg652_1: "f16[1280, 1280]", arg653_1: "f16[1280]", arg654_1: "f16[1280]", arg655_1: "f16[1280]", arg656_1: "f16[10240, 1280]", arg657_1: "f16[10240]", arg658_1: "f16[1280, 5120]", arg659_1: "f16[1280]", arg660_1: "f16[1280, 1280, 1, 1]", arg661_1: "f16[1280]", arg662_1: "f16[1280]", arg663_1: "f16[1280]", arg664_1: "f16[1280, 1280, 3, 3]", arg665_1: "f16[1280]", arg666_1: "f16[1280, 1280]", arg667_1: "f16[1280]", arg668_1: "f16[1280]", arg669_1: "f16[1280]", arg670_1: "f16[1280, 1280, 3, 3]", arg671_1: "f16[1280]", arg672_1: "f16[1280]", arg673_1: "f16[1280]", arg674_1: "f16[1280, 1280, 3, 3]", arg675_1: "f16[1280]", arg676_1: "f16[1280, 1280]", arg677_1: "f16[1280]", arg678_1: "f16[1280]", arg679_1: "f16[1280]", arg680_1: "f16[1280, 1280, 3, 3]", arg681_1: "f16[1280]", arg682_1: "f16[1, 4, 64, 64]", arg683_1: "f32[1]", arg684_1: "f16[1, 1, 768]", arg685_1: "b8[]"):
    # File: /home/newub/w/PersonaLive/src/models/unet_2d_condition.py:1000 in forward, code: timesteps = timesteps.expand(sample.shape[0])
    expand: "f32[1]" = torch.ops.aten.expand.default(arg683_1, [1]);  arg683_1 = None
    
    # File: /home/newub/w/PersonaLive/.venv/lib/python3.10/site-packages/diffusers/models/embeddings.py:247 in forward, code: t_emb = get_timestep_embedding(
    arange: "f32[160]" = torch.ops.aten.arange.start(0, 160, dtype = torch.float32, device = device(type='cuda', index=0), pin_memory = False)
    mul: "f32[160]" = torch.ops.aten.mul.Tensor(arange, -9.210340371976184);  arange = None
    div: "f32[160]" = torch.ops.aten.div.Tensor(mul, 160);  mul = None
    exp: "f32[160]" = torch.ops.aten.exp.default(div);  div = None
    unsqueeze: "f32[1, 1]" = torch.ops.aten.unsqueeze.default(expand, 1);  expand = None
    to: "f32[1, 1]" = torch.ops.aten.to.dtype(unsqueeze, torch.float32);  unsqueeze = None
    unsqueeze_1: "f32[1, 160]" = torch.ops.aten.unsqueeze.default(exp, 0);  exp = None
    mul_1: "f32[1, 160]" = torch.ops.aten.mul.Tensor(to, unsqueeze_1);  to = unsqueeze_1 = None
    mul_2: "f32[1, 160]" = torch.ops.aten.mul.Tensor(mul_1, 1);  mul_1 = None
    sin: "f32[1, 160]" = torch.ops.aten.sin.default(mul_2)
    cos: "f32[1, 160]" = torch.ops.aten.cos.default(mul_2);  mul_2 = None
    cat: "f32[1, 320]" = torch.ops.aten.cat.default([sin, cos], -1);  sin = cos = None
    slice_1: "f32[1, 160]" = torch.ops.aten.slice.Tensor(cat, 1, 160, 9223372036854775807)
    slice_2: "f32[1, 160]" = torch.ops.aten.slice.Tensor(cat, 1, 0, 160);  cat = None
    cat_1: "f32[1, 320]" = torch.ops.aten.cat.default([slice_1, slice_2], -1);  slice_1 = slice_2 = None
    
    # File: /home/newub/w/PersonaLive/src/models/unet_2d_condition.py:1007 in forward, code: t_emb = t_emb.to(dtype=sample.dtype)
    to_1: "f16[1, 320]" = torch.ops.aten.to.dtype(cat_1, torch.float16);  cat_1 = None
    
    # File: /home/newub/w/PersonaLive/.venv/lib/python3.10/site-packages/torch/nn/modules/linear.py:134 in forward, code: return F.linear(input, self.weight, self.bias)
    linear: "f16[1, 1280]" = torch.ops.aten.linear.default(to_1, arg2_1, arg3_1);  to_1 = arg2_1 = arg3_1 = None
    
    # File: /home/newub/w/PersonaLive/.venv/lib/python3.10/site-packages/torch/nn/modules/activation.py:475 in forward, code: return F.silu(input, inplace=self.inplace)
    silu: "f16[1, 1280]" = torch.ops.aten.silu.default(linear);  linear = None
    
    # File: /home/newub/w/PersonaLive/.venv/lib/python3.10/site-packages/torch/nn/modules/linear.py:134 in forward, code: return F.linear(input, self.weight, self.bias)
    linear_1: "f16[1, 1280]" = torch.ops.aten.linear.default(silu, arg4_1, arg5_1);  silu = arg4_1 = arg5_1 = None
    
    # File: /home/newub/w/PersonaLive/.venv/lib/python3.10/site-packages/torch/nn/modules/conv.py:553 in forward, code: return self._conv_forward(input, self.weight, self.bias)
    conv2d: "f16[1, 320, 64, 64]" = torch.ops.aten.conv2d.default(arg682_1, arg0_1, arg1_1, [1, 1], [1, 1]);  arg682_1 = arg0_1 = arg1_1 = None
    
    # File: /home/newub/w/PersonaLive/.venv/lib/python3.10/site-packages/torch/nn/modules/normalization.py:327 in forward, code: return F.group_norm(input, self.num_groups, self.weight, self.bias, self.eps)
    group_norm: "f16[1, 320, 64, 64]" = torch.ops.aten.group_norm.default(conv2d, 32, arg58_1, arg59_1, 1e-05, False);  arg58_1 = arg59_1 = None
    
    # File: /home/newub/w/PersonaLive/.venv/lib/python3.10/site-packages/torch/nn/modules/activation.py:475 in forward, code: return F.silu(input, inplace=self.inplace)
    silu_1: "f16[1, 320, 64, 64]" = torch.ops.aten.silu.default(group_norm);  group_norm = None
    
    # File: /home/newub/w/PersonaLive/.venv/lib/python3.10/site-packages/torch/nn/modules/conv.py:553 in forward, code: return self._conv_forward(input, self.weight, self.bias)
    conv2d_1: "f16[1, 320, 64, 64]" = torch.ops.aten.conv2d.default(silu_1, arg60_1, arg61_1, [1, 1], [1, 1]);  silu_1 = arg60_1 = arg61_1 = None
    
    # File: /home/newub/w/PersonaLive/.venv/lib/python3.10/site-packages/torch/nn/modules/activation.py:475 in forward, code: return F.silu(input, inplace=self.inplace)
    silu_2: "f16[1, 1280]" = torch.ops.aten.silu.default(linear_1)
    
    # File: /home/newub/w/PersonaLive/.venv/lib/python3.10/site-packages/torch/nn/modules/linear.py:134 in forward, code: return F.linear(input, self.weight, self.bias)
    linear_2: "f16[1, 320]" = torch.ops.aten.linear.default(silu_2, arg62_1, arg63_1);  silu_2 = arg62_1 = arg63_1 = None
    
    # File: /home/newub/w/PersonaLive/.venv/lib/python3.10/site-packages/diffusers/models/resnet.py:351 in forward, code: temb = self.time_emb_proj(temb)[:, :, None, None]
    unsqueeze_2: "f16[1, 320, 1]" = torch.ops.aten.unsqueeze.default(linear_2, 2);  linear_2 = None
    unsqueeze_3: "f16[1, 320, 1, 1]" = torch.ops.aten.unsqueeze.default(unsqueeze_2, 3);  unsqueeze_2 = None
    
    # File: /home/newub/w/PersonaLive/.venv/lib/python3.10/site-packages/diffusers/models/resnet.py:355 in forward, code: hidden_states = hidden_states + temb
    add: "f16[1, 320, 64, 64]" = torch.ops.aten.add.Tensor(conv2d_1, unsqueeze_3);  conv2d_1 = unsqueeze_3 = None
    
    # File: /home/newub/w/PersonaLive/.venv/lib/python3.10/site-packages/torch/nn/modules/normalization.py:327 in forward, code: return F.group_norm(input, self.num_groups, self.weight, self.bias, self.eps)
    group_norm_1: "f16[1, 320, 64, 64]" = torch.ops.aten.group_norm.default(add, 32, arg64_1, arg65_1, 1e-05, False);  add = arg64_1 = arg65_1 = None
    
    # File: /home/newub/w/PersonaLive/.venv/lib/python3.10/site-packages/torch/nn/modules/activation.py:475 in forward, code: return F.silu(input, inplace=self.inplace)
    silu_3: "f16[1, 320, 64, 64]" = torch.ops.aten.silu.default(group_norm_1);  group_norm_1 = None
    
    # File: /home/newub/w/PersonaLive/.venv/lib/python3.10/site-packages/torch/nn/modules/dropout.py:73 in forward, code: return F.dropout(input, self.p, self.training, self.inplace)
    dropout: "f16[1, 320, 64, 64]" = torch.ops.aten.dropout.default(silu_3, 0.0, False);  silu_3 = None
    
    # File: /home/newub/w/PersonaLive/.venv/lib/python3.10/site-packages/torch/nn/modules/conv.py:553 in forward, code: return self._conv_forward(input, self.weight, self.bias)
    conv2d_2: "f16[1, 320, 64, 64]" = torch.ops.aten.conv2d.default(dropout, arg66_1, arg67_1, [1, 1], [1, 1]);  dropout = arg66_1 = arg67_1 = None
    
    # File: /home/newub/w/PersonaLive/.venv/lib/python3.10/site-packages/diffusers/models/resnet.py:376 in forward, code: output_tensor = (input_tensor + hidden_states) / self.output_scale_factor
    add_1: "f16[1, 320, 64, 64]" = torch.ops.aten.add.Tensor(conv2d, conv2d_2);  conv2d_2 = None
    div_1: "f16[1, 320, 64, 64]" = torch.ops.aten.div.Tensor(add_1, 1.0);  add_1 = None
    
    # File: /home/newub/w/PersonaLive/.venv/lib/python3.10/site-packages/torch/nn/modules/normalization.py:327 in forward, code: return F.group_norm(input, self.num_groups, self.weight, self.bias, self.eps)
    group_norm_2: "f16[1, 320, 64, 64]" = torch.ops.aten.group_norm.default(div_1, 32, arg6_1, arg7_1, 1e-06, False);  arg6_1 = arg7_1 = None
    
    # File: /home/newub/w/PersonaLive/.venv/lib/python3.10/site-packages/torch/nn/modules/conv.py:553 in forward, code: return self._conv_forward(input, self.weight, self.bias)
    conv2d_3: "f16[1, 320, 64, 64]" = torch.ops.aten.conv2d.default(group_norm_2, arg8_1, arg9_1);  group_norm_2 = arg8_1 = arg9_1 = None
    
    # File: /home/newub/w/PersonaLive/src/models/transformer_2d.py:306 in forward, code: hidden_states = hidden_states.permute(0, 2, 3, 1).reshape(
    permute: "f16[1, 64, 64, 320]" = torch.ops.aten.permute.default(conv2d_3, [0, 2, 3, 1]);  conv2d_3 = None
    reshape: "f16[1, 4096, 320]" = torch.ops.aten.reshape.default(permute, [1, 4096, 320]);  permute = None
    
    # File: /home/newub/w/PersonaLive/src/models/transformer_2d.py:328 in forward, code: ref_feature = hidden_states.reshape(batch, height, width, inner_dim)
    reshape_1: "f16[1, 64, 64, 320]" = torch.ops.aten.reshape.default(reshape, [1, 64, 64, 320]);  reshape_1 = None
    
    # File: /home/newub/w/PersonaLive/.venv/lib/python3.10/site-packages/torch/nn/modules/normalization.py:229 in forward, code: return F.layer_norm(
    layer_norm: "f16[1, 4096, 320]" = torch.ops.aten.layer_norm.default(reshape, [320], arg10_1, arg11_1, 1e-05, False);  arg10_1 = arg11_1 = None
    
    # File: /home/newub/w/PersonaLive/src/models/transformer_2d.py:356 in forward, code: hidden_states = block(
    clone: "f16[1, 4096, 320]" = torch.ops.aten.clone.default(layer_norm);  clone = None
    
    # File: /home/newub/w/PersonaLive/.venv/lib/python3.10/site-packages/torch/nn/modules/linear.py:134 in forward, code: return F.linear(input, self.weight, self.bias)
    linear_3: "f16[1, 4096, 320]" = torch.ops.aten.linear.default(layer_norm, arg12_1);  arg12_1 = None
    linear_4: "f16[1, 4096, 320]" = torch.ops.aten.linear.default(layer_norm, arg13_1);  arg13_1 = None
    linear_5: "f16[1, 4096, 320]" = torch.ops.aten.linear.default(layer_norm, arg14_1);  layer_norm = arg14_1 = None
    
    # File: /home/newub/w/PersonaLive/.venv/lib/python3.10/site-packages/diffusers/models/attention_processor.py:522 in forward, code: return self.processor(
    view: "f16[1, 4096, 8, 40]" = torch.ops.aten.view.default(linear_3, [1, -1, 8, 40]);  linear_3 = None
    transpose: "f16[1, 8, 4096, 40]" = torch.ops.aten.transpose.int(view, 1, 2);  view = None
    view_1: "f16[1, 4096, 8, 40]" = torch.ops.aten.view.default(linear_4, [1, -1, 8, 40]);  linear_4 = None
    transpose_1: "f16[1, 8, 4096, 40]" = torch.ops.aten.transpose.int(view_1, 1, 2);  view_1 = None
    view_2: "f16[1, 4096, 8, 40]" = torch.ops.aten.view.default(linear_5, [1, -1, 8, 40]);  linear_5 = None
    transpose_2: "f16[1, 8, 4096, 40]" = torch.ops.aten.transpose.int(view_2, 1, 2);  view_2 = None
    scaled_dot_product_attention: "f16[1, 8, 4096, 40]" = torch.ops.aten.scaled_dot_product_attention.default(transpose, transpose_1, transpose_2);  transpose = transpose_1 = transpose_2 = None
    transpose_3: "f16[1, 4096, 8, 40]" = torch.ops.aten.transpose.int(scaled_dot_product_attention, 1, 2);  scaled_dot_product_attention = None
    reshape_2: "f16[1, 4096, 320]" = torch.ops.aten.reshape.default(transpose_3, [1, -1, 320]);  transpose_3 = None
    to_2: "f16[1, 4096, 320]" = torch.ops.aten.to.dtype(reshape_2, torch.float16);  reshape_2 = None
    
    # File: /home/newub/w/PersonaLive/.venv/lib/python3.10/site-packages/torch/nn/modules/linear.py:134 in forward, code: return F.linear(input, self.weight, self.bias)
    linear_6: "f16[1, 4096, 320]" = torch.ops.aten.linear.default(to_2, arg15_1, arg16_1);  to_2 = arg15_1 = arg16_1 = None
    
    # File: /home/newub/w/PersonaLive/.venv/lib/python3.10/site-packages/torch/nn/modules/dropout.py:73 in forward, code: return F.dropout(input, self.p, self.training, self.inplace)
    dropout_1: "f16[1, 4096, 320]" = torch.ops.aten.dropout.default(linear_6, 0.0, False);  linear_6 = None
    
    # File: /home/newub/w/PersonaLive/.venv/lib/python3.10/site-packages/diffusers/models/attention_processor.py:522 in forward, code: return self.processor(
    div_2: "f16[1, 4096, 320]" = torch.ops.aten.div.Tensor(dropout_1, 1.0);  dropout_1 = None
    
    # File: /home/newub/w/PersonaLive/src/models/transformer_2d.py:356 in forward, code: hidden_states = block(
    add_2: "f16[1, 4096, 320]" = torch.ops.aten.add.Tensor(div_2, reshape);  div_2 = reshape = None
    
    # File: /home/newub/w/PersonaLive/.venv/lib/python3.10/site-packages/torch/nn/modules/normalization.py:229 in forward, code: return F.layer_norm(
    layer_norm_1: "f16[1, 4096, 320]" = torch.ops.aten.layer_norm.default(add_2, [320], arg17_1, arg18_1, 1e-05, False);  arg17_1 = arg18_1 = None
    
    # File: /home/newub/w/PersonaLive/.venv/lib/python3.10/site-packages/torch/nn/modules/linear.py:134 in forward, code: return F.linear(input, self.weight, self.bias)
    linear_7: "f16[1, 4096, 320]" = torch.ops.aten.linear.default(layer_norm_1, arg19_1);  layer_norm_1 = arg19_1 = None
    linear_8: "f16[1, 1, 320]" = torch.ops.aten.linear.default(arg684_1, arg20_1);  arg20_1 = None
    linear_9: "f16[1, 1, 320]" = torch.ops.aten.linear.default(arg684_1, arg21_1);  arg21_1 = None
    
    # File: /home/newub/w/PersonaLive/.venv/lib/python3.10/site-packages/diffusers/models/attention_processor.py:522 in forward, code: return self.processor(
    view_3: "f16[1, 4096, 8, 40]" = torch.ops.aten.view.default(linear_7, [1, -1, 8, 40]);  linear_7 = None
    transpose_4: "f16[1, 8, 4096, 40]" = torch.ops.aten.transpose.int(view_3, 1, 2);  view_3 = None
    view_4: "f16[1, 1, 8, 40]" = torch.ops.aten.view.default(linear_8, [1, -1, 8, 40]);  linear_8 = None
    transpose_5: "f16[1, 8, 1, 40]" = torch.ops.aten.transpose.int(view_4, 1, 2);  view_4 = None
    view_5: "f16[1, 1, 8, 40]" = torch.ops.aten.view.default(linear_9, [1, -1, 8, 40]);  linear_9 = None
    transpose_6: "f16[1, 8, 1, 40]" = torch.ops.aten.transpose.int(view_5, 1, 2);  view_5 = None
    scaled_dot_product_attention_1: "f16[1, 8, 4096, 40]" = torch.ops.aten.scaled_dot_product_attention.default(transpose_4, transpose_5, transpose_6);  transpose_4 = transpose_5 = transpose_6 = None
    transpose_7: "f16[1, 4096, 8, 40]" = torch.ops.aten.transpose.int(scaled_dot_product_attention_1, 1, 2);  scaled_dot_product_attention_1 = None
    reshape_3: "f16[1, 4096, 320]" = torch.ops.aten.reshape.default(transpose_7, [1, -1, 320]);  transpose_7 = None
    to_3: "f16[1, 4096, 320]" = torch.ops.aten.to.dtype(reshape_3, torch.float16);  reshape_3 = None
    
    # File: /home/newub/w/PersonaLive/.venv/lib/python3.10/site-packages/torch/nn/modules/linear.py:134 in forward, code: return F.linear(input, self.weight, self.bias)
    linear_10: "f16[1, 4096, 320]" = torch.ops.aten.linear.default(to_3, arg22_1, arg23_1);  to_3 = arg22_1 = arg23_1 = None
    
    # File: /home/newub/w/PersonaLive/.venv/lib/python3.10/site-packages/torch/nn/modules/dropout.py:73 in forward, code: return F.dropout(input, self.p, self.training, self.inplace)
    dropout_2: "f16[1, 4096, 320]" = torch.ops.aten.dropout.default(linear_10, 0.0, False);  linear_10 = None
    
    # File: /home/newub/w/PersonaLive/.venv/lib/python3.10/site-packages/diffusers/models/attention_processor.py:522 in forward, code: return self.processor(
    div_3: "f16[1, 4096, 320]" = torch.ops.aten.div.Tensor(dropout_2, 1.0);  dropout_2 = None
    
    # File: /home/newub/w/PersonaLive/src/models/transformer_2d.py:356 in forward, code: hidden_states = block(
    add_3: "f16[1, 4096, 320]" = torch.ops.aten.add.Tensor(div_3, add_2);  div_3 = add_2 = None
    
    # File: /home/newub/w/PersonaLive/.venv/lib/python3.10/site-packages/torch/nn/modules/normalization.py:229 in forward, code: return F.layer_norm(
    layer_norm_2: "f16[1, 4096, 320]" = torch.ops.aten.layer_norm.default(add_3, [320], arg24_1, arg25_1, 1e-05, False);  arg24_1 = arg25_1 = None
    
    # File: /home/newub/w/PersonaLive/.venv/lib/python3.10/site-packages/torch/nn/modules/linear.py:134 in forward, code: return F.linear(input, self.weight, self.bias)
    linear_11: "f16[1, 4096, 2560]" = torch.ops.aten.linear.default(layer_norm_2, arg26_1, arg27_1);  layer_norm_2 = arg26_1 = arg27_1 = None
    
    # File: /home/newub/w/PersonaLive/.venv/lib/python3.10/site-packages/diffusers/models/activations.py:102 in forward, code: hidden_states, gate = self.proj(hidden_states).chunk(2, dim=-1)
    chunk = torch.ops.aten.chunk.default(linear_11, 2, -1);  linear_11 = None
    getitem: "f16[1, 4096, 1280]" = chunk[0]
    getitem_1: "f16[1, 4096, 1280]" = chunk[1];  chunk = None
    
    # File: /home/newub/w/PersonaLive/.venv/lib/python3.10/site-packages/diffusers/models/activations.py:103 in forward, code: return hidden_states * self.gelu(gate)
    gelu: "f16[1, 4096, 1280]" = torch.ops.aten.gelu.default(getitem_1);  getitem_1 = None
    mul_3: "f16[1, 4096, 1280]" = torch.ops.aten.mul.Tensor(getitem, gelu);  getitem = gelu = None
    
    # File: /home/newub/w/PersonaLive/.venv/lib/python3.10/site-packages/torch/nn/modules/dropout.py:73 in forward, code: return F.dropout(input, self.p, self.training, self.inplace)
    dropout_3: "f16[1, 4096, 1280]" = torch.ops.aten.dropout.default(mul_3, 0.0, False);  mul_3 = None
    
    # File: /home/newub/w/PersonaLive/.venv/lib/python3.10/site-packages/torch/nn/modules/linear.py:134 in forward, code: return F.linear(input, self.weight, self.bias)
    linear_12: "f16[1, 4096, 320]" = torch.ops.aten.linear.default(dropout_3, arg28_1, arg29_1);  dropout_3 = arg28_1 = arg29_1 = None
    
    # File: /home/newub/w/PersonaLive/src/models/transformer_2d.py:356 in forward, code: hidden_states = block(
    add_4: "f16[1, 4096, 320]" = torch.ops.aten.add.Tensor(linear_12, add_3);  linear_12 = add_3 = None
    
    # File: /home/newub/w/PersonaLive/src/models/transformer_2d.py:370 in forward, code: hidden_states.reshape(batch, height, width, inner_dim)
    reshape_4: "f16[1, 64, 64, 320]" = torch.ops.aten.reshape.default(add_4, [1, 64, 64, 320]);  add_4 = None
    
    # File: /home/newub/w/PersonaLive/src/models/transformer_2d.py:371 in forward, code: .permute(0, 3, 1, 2)
    permute_1: "f16[1, 320, 64, 64]" = torch.ops.aten.permute.default(reshape_4, [0, 3, 1, 2]);  reshape_4 = None
    
    # File: /home/newub/w/PersonaLive/src/models/transformer_2d.py:372 in forward, code: .contiguous()
    contiguous: "f16[1, 320, 64, 64]" = torch.ops.aten.contiguous.default(permute_1);  permute_1 = None
    
    # File: /home/newub/w/PersonaLive/.venv/lib/python3.10/site-packages/torch/nn/modules/conv.py:553 in forward, code: return self._conv_forward(input, self.weight, self.bias)
    conv2d_4: "f16[1, 320, 64, 64]" = torch.ops.aten.conv2d.default(contiguous, arg30_1, arg31_1);  contiguous = arg30_1 = arg31_1 = None
    
    # File: /home/newub/w/PersonaLive/src/models/transformer_2d.py:391 in forward, code: output = hidden_states + residual
    add_5: "f16[1, 320, 64, 64]" = torch.ops.aten.add.Tensor(conv2d_4, div_1);  conv2d_4 = div_1 = None
    
    # File: /home/newub/w/PersonaLive/.venv/lib/python3.10/site-packages/torch/nn/modules/normalization.py:327 in forward, code: return F.group_norm(input, self.num_groups, self.weight, self.bias, self.eps)
    group_norm_3: "f16[1, 320, 64, 64]" = torch.ops.aten.group_norm.default(add_5, 32, arg68_1, arg69_1, 1e-05, False);  arg68_1 = arg69_1 = None
    
    # File: /home/newub/w/PersonaLive/.venv/lib/python3.10/site-packages/torch/nn/modules/activation.py:475 in forward, code: return F.silu(input, inplace=self.inplace)
    silu_4: "f16[1, 320, 64, 64]" = torch.ops.aten.silu.default(group_norm_3);  group_norm_3 = None
    
    # File: /home/newub/w/PersonaLive/.venv/lib/python3.10/site-packages/torch/nn/modules/conv.py:553 in forward, code: return self._conv_forward(input, self.weight, self.bias)
    conv2d_5: "f16[1, 320, 64, 64]" = torch.ops.aten.conv2d.default(silu_4, arg70_1, arg71_1, [1, 1], [1, 1]);  silu_4 = arg70_1 = arg71_1 = None
    
    # File: /home/newub/w/PersonaLive/.venv/lib/python3.10/site-packages/torch/nn/modules/activation.py:475 in forward, code: return F.silu(input, inplace=self.inplace)
    silu_5: "f16[1, 1280]" = torch.ops.aten.silu.default(linear_1)
    
    # File: /home/newub/w/PersonaLive/.venv/lib/python3.10/site-packages/torch/nn/modules/linear.py:134 in forward, code: return F.linear(input, self.weight, self.bias)
    linear_13: "f16[1, 320]" = torch.ops.aten.linear.default(silu_5, arg72_1, arg73_1);  silu_5 = arg72_1 = arg73_1 = None
    
    # File: /home/newub/w/PersonaLive/.venv/lib/python3.10/site-packages/diffusers/models/resnet.py:351 in forward, code: temb = self.time_emb_proj(temb)[:, :, None, None]
    unsqueeze_4: "f16[1, 320, 1]" = torch.ops.aten.unsqueeze.default(linear_13, 2);  linear_13 = None
    unsqueeze_5: "f16[1, 320, 1, 1]" = torch.ops.aten.unsqueeze.default(unsqueeze_4, 3);  unsqueeze_4 = None
    
    # File: /home/newub/w/PersonaLive/.venv/lib/python3.10/site-packages/diffusers/models/resnet.py:355 in forward, code: hidden_states = hidden_states + temb
    add_6: "f16[1, 320, 64, 64]" = torch.ops.aten.add.Tensor(conv2d_5, unsqueeze_5);  conv2d_5 = unsqueeze_5 = None
    
    # File: /home/newub/w/PersonaLive/.venv/lib/python3.10/site-packages/torch/nn/modules/normalization.py:327 in forward, code: return F.group_norm(input, self.num_groups, self.weight, self.bias, self.eps)
    group_norm_4: "f16[1, 320, 64, 64]" = torch.ops.aten.group_norm.default(add_6, 32, arg74_1, arg75_1, 1e-05, False);  add_6 = arg74_1 = arg75_1 = None
    
    # File: /home/newub/w/PersonaLive/.venv/lib/python3.10/site-packages/torch/nn/modules/activation.py:475 in forward, code: return F.silu(input, inplace=self.inplace)
    silu_6: "f16[1, 320, 64, 64]" = torch.ops.aten.silu.default(group_norm_4);  group_norm_4 = None
    
    # File: /home/newub/w/PersonaLive/.venv/lib/python3.10/site-packages/torch/nn/modules/dropout.py:73 in forward, code: return F.dropout(input, self.p, self.training, self.inplace)
    dropout_4: "f16[1, 320, 64, 64]" = torch.ops.aten.dropout.default(silu_6, 0.0, False);  silu_6 = None
    
    # File: /home/newub/w/PersonaLive/.venv/lib/python3.10/site-packages/torch/nn/modules/conv.py:553 in forward, code: return self._conv_forward(input, self.weight, self.bias)
    conv2d_6: "f16[1, 320, 64, 64]" = torch.ops.aten.conv2d.default(dropout_4, arg76_1, arg77_1, [1, 1], [1, 1]);  dropout_4 = arg76_1 = arg77_1 = None
    
    # File: /home/newub/w/PersonaLive/.venv/lib/python3.10/site-packages/diffusers/models/resnet.py:376 in forward, code: output_tensor = (input_tensor + hidden_states) / self.output_scale_factor
    add_7: "f16[1, 320, 64, 64]" = torch.ops.aten.add.Tensor(add_5, conv2d_6);  conv2d_6 = None
    div_4: "f16[1, 320, 64, 64]" = torch.ops.aten.div.Tensor(add_7, 1.0);  add_7 = None
    
    # File: /home/newub/w/PersonaLive/.venv/lib/python3.10/site-packages/torch/nn/modules/normalization.py:327 in forward, code: return F.group_norm(input, self.num_groups, self.weight, self.bias, self.eps)
    group_norm_5: "f16[1, 320, 64, 64]" = torch.ops.aten.group_norm.default(div_4, 32, arg32_1, arg33_1, 1e-06, False);  arg32_1 = arg33_1 = None
    
    # File: /home/newub/w/PersonaLive/.venv/lib/python3.10/site-packages/torch/nn/modules/conv.py:553 in forward, code: return self._conv_forward(input, self.weight, self.bias)
    conv2d_7: "f16[1, 320, 64, 64]" = torch.ops.aten.conv2d.default(group_norm_5, arg34_1, arg35_1);  group_norm_5 = arg34_1 = arg35_1 = None
    
    # File: /home/newub/w/PersonaLive/src/models/transformer_2d.py:306 in forward, code: hidden_states = hidden_states.permute(0, 2, 3, 1).reshape(
    permute_2: "f16[1, 64, 64, 320]" = torch.ops.aten.permute.default(conv2d_7, [0, 2, 3, 1]);  conv2d_7 = None
    reshape_5: "f16[1, 4096, 320]" = torch.ops.aten.reshape.default(permute_2, [1, 4096, 320]);  permute_2 = None
    
    # File: /home/newub/w/PersonaLive/src/models/transformer_2d.py:328 in forward, code: ref_feature = hidden_states.reshape(batch, height, width, inner_dim)
    reshape_6: "f16[1, 64, 64, 320]" = torch.ops.aten.reshape.default(reshape_5, [1, 64, 64, 320]);  reshape_6 = None
    
    # File: /home/newub/w/PersonaLive/.venv/lib/python3.10/site-packages/torch/nn/modules/normalization.py:229 in forward, code: return F.layer_norm(
    layer_norm_3: "f16[1, 4096, 320]" = torch.ops.aten.layer_norm.default(reshape_5, [320], arg36_1, arg37_1, 1e-05, False);  arg36_1 = arg37_1 = None
    
    # File: /home/newub/w/PersonaLive/src/models/transformer_2d.py:356 in forward, code: hidden_states = block(
    clone_1: "f16[1, 4096, 320]" = torch.ops.aten.clone.default(layer_norm_3);  clone_1 = None
    
    # File: /home/newub/w/PersonaLive/.venv/lib/python3.10/site-packages/torch/nn/modules/linear.py:134 in forward, code: return F.linear(input, self.weight, self.bias)
    linear_14: "f16[1, 4096, 320]" = torch.ops.aten.linear.default(layer_norm_3, arg38_1);  arg38_1 = None
    linear_15: "f16[1, 4096, 320]" = torch.ops.aten.linear.default(layer_norm_3, arg39_1);  arg39_1 = None
    linear_16: "f16[1, 4096, 320]" = torch.ops.aten.linear.default(layer_norm_3, arg40_1);  layer_norm_3 = arg40_1 = None
    
    # File: /home/newub/w/PersonaLive/.venv/lib/python3.10/site-packages/diffusers/models/attention_processor.py:522 in forward, code: return self.processor(
    view_6: "f16[1, 4096, 8, 40]" = torch.ops.aten.view.default(linear_14, [1, -1, 8, 40]);  linear_14 = None
    transpose_8: "f16[1, 8, 4096, 40]" = torch.ops.aten.transpose.int(view_6, 1, 2);  view_6 = None
    view_7: "f16[1, 4096, 8, 40]" = torch.ops.aten.view.default(linear_15, [1, -1, 8, 40]);  linear_15 = None
    transpose_9: "f16[1, 8, 4096, 40]" = torch.ops.aten.transpose.int(view_7, 1, 2);  view_7 = None
    view_8: "f16[1, 4096, 8, 40]" = torch.ops.aten.view.default(linear_16, [1, -1, 8, 40]);  linear_16 = None
    transpose_10: "f16[1, 8, 4096, 40]" = torch.ops.aten.transpose.int(view_8, 1, 2);  view_8 = None
    scaled_dot_product_attention_2: "f16[1, 8, 4096, 40]" = torch.ops.aten.scaled_dot_product_attention.default(transpose_8, transpose_9, transpose_10);  transpose_8 = transpose_9 = transpose_10 = None
    transpose_11: "f16[1, 4096, 8, 40]" = torch.ops.aten.transpose.int(scaled_dot_product_attention_2, 1, 2);  scaled_dot_product_attention_2 = None
    reshape_7: "f16[1, 4096, 320]" = torch.ops.aten.reshape.default(transpose_11, [1, -1, 320]);  transpose_11 = None
    to_4: "f16[1, 4096, 320]" = torch.ops.aten.to.dtype(reshape_7, torch.float16);  reshape_7 = None
    
    # File: /home/newub/w/PersonaLive/.venv/lib/python3.10/site-packages/torch/nn/modules/linear.py:134 in forward, code: return F.linear(input, self.weight, self.bias)
    linear_17: "f16[1, 4096, 320]" = torch.ops.aten.linear.default(to_4, arg41_1, arg42_1);  to_4 = arg41_1 = arg42_1 = None
    
    # File: /home/newub/w/PersonaLive/.venv/lib/python3.10/site-packages/torch/nn/modules/dropout.py:73 in forward, code: return F.dropout(input, self.p, self.training, self.inplace)
    dropout_5: "f16[1, 4096, 320]" = torch.ops.aten.dropout.default(linear_17, 0.0, False);  linear_17 = None
    
    # File: /home/newub/w/PersonaLive/.venv/lib/python3.10/site-packages/diffusers/models/attention_processor.py:522 in forward, code: return self.processor(
    div_5: "f16[1, 4096, 320]" = torch.ops.aten.div.Tensor(dropout_5, 1.0);  dropout_5 = None
    
    # File: /home/newub/w/PersonaLive/src/models/transformer_2d.py:356 in forward, code: hidden_states = block(
    add_8: "f16[1, 4096, 320]" = torch.ops.aten.add.Tensor(div_5, reshape_5);  div_5 = reshape_5 = None
    
    # File: /home/newub/w/PersonaLive/.venv/lib/python3.10/site-packages/torch/nn/modules/normalization.py:229 in forward, code: return F.layer_norm(
    layer_norm_4: "f16[1, 4096, 320]" = torch.ops.aten.layer_norm.default(add_8, [320], arg43_1, arg44_1, 1e-05, False);  arg43_1 = arg44_1 = None
    
    # File: /home/newub/w/PersonaLive/.venv/lib/python3.10/site-packages/torch/nn/modules/linear.py:134 in forward, code: return F.linear(input, self.weight, self.bias)
    linear_18: "f16[1, 4096, 320]" = torch.ops.aten.linear.default(layer_norm_4, arg45_1);  layer_norm_4 = arg45_1 = None
    linear_19: "f16[1, 1, 320]" = torch.ops.aten.linear.default(arg684_1, arg46_1);  arg46_1 = None
    linear_20: "f16[1, 1, 320]" = torch.ops.aten.linear.default(arg684_1, arg47_1);  arg47_1 = None
    
    # File: /home/newub/w/PersonaLive/.venv/lib/python3.10/site-packages/diffusers/models/attention_processor.py:522 in forward, code: return self.processor(
    view_9: "f16[1, 4096, 8, 40]" = torch.ops.aten.view.default(linear_18, [1, -1, 8, 40]);  linear_18 = None
    transpose_12: "f16[1, 8, 4096, 40]" = torch.ops.aten.transpose.int(view_9, 1, 2);  view_9 = None
    view_10: "f16[1, 1, 8, 40]" = torch.ops.aten.view.default(linear_19, [1, -1, 8, 40]);  linear_19 = None
    transpose_13: "f16[1, 8, 1, 40]" = torch.ops.aten.transpose.int(view_10, 1, 2);  view_10 = None
    view_11: "f16[1, 1, 8, 40]" = torch.ops.aten.view.default(linear_20, [1, -1, 8, 40]);  linear_20 = None
    transpose_14: "f16[1, 8, 1, 40]" = torch.ops.aten.transpose.int(view_11, 1, 2);  view_11 = None
    scaled_dot_product_attention_3: "f16[1, 8, 4096, 40]" = torch.ops.aten.scaled_dot_product_attention.default(transpose_12, transpose_13, transpose_14);  transpose_12 = transpose_13 = transpose_14 = None
    transpose_15: "f16[1, 4096, 8, 40]" = torch.ops.aten.transpose.int(scaled_dot_product_attention_3, 1, 2);  scaled_dot_product_attention_3 = None
    reshape_8: "f16[1, 4096, 320]" = torch.ops.aten.reshape.default(transpose_15, [1, -1, 320]);  transpose_15 = None
    to_5: "f16[1, 4096, 320]" = torch.ops.aten.to.dtype(reshape_8, torch.float16);  reshape_8 = None
    
    # File: /home/newub/w/PersonaLive/.venv/lib/python3.10/site-packages/torch/nn/modules/linear.py:134 in forward, code: return F.linear(input, self.weight, self.bias)
    linear_21: "f16[1, 4096, 320]" = torch.ops.aten.linear.default(to_5, arg48_1, arg49_1);  to_5 = arg48_1 = arg49_1 = None
    
    # File: /home/newub/w/PersonaLive/.venv/lib/python3.10/site-packages/torch/nn/modules/dropout.py:73 in forward, code: return F.dropout(input, self.p, self.training, self.inplace)
    dropout_6: "f16[1, 4096, 320]" = torch.ops.aten.dropout.default(linear_21, 0.0, False);  linear_21 = None
    
    # File: /home/newub/w/PersonaLive/.venv/lib/python3.10/site-packages/diffusers/models/attention_processor.py:522 in forward, code: return self.processor(
    div_6: "f16[1, 4096, 320]" = torch.ops.aten.div.Tensor(dropout_6, 1.0);  dropout_6 = None
    
    # File: /home/newub/w/PersonaLive/src/models/transformer_2d.py:356 in forward, code: hidden_states = block(
    add_9: "f16[1, 4096, 320]" = torch.ops.aten.add.Tensor(div_6, add_8);  div_6 = add_8 = None
    
    # File: /home/newub/w/PersonaLive/.venv/lib/python3.10/site-packages/torch/nn/modules/normalization.py:229 in forward, code: return F.layer_norm(
    layer_norm_5: "f16[1, 4096, 320]" = torch.ops.aten.layer_norm.default(add_9, [320], arg50_1, arg51_1, 1e-05, False);  arg50_1 = arg51_1 = None
    
    # File: /home/newub/w/PersonaLive/.venv/lib/python3.10/site-packages/torch/nn/modules/linear.py:134 in forward, code: return F.linear(input, self.weight, self.bias)
    linear_22: "f16[1, 4096, 2560]" = torch.ops.aten.linear.default(layer_norm_5, arg52_1, arg53_1);  layer_norm_5 = arg52_1 = arg53_1 = None
    
    # File: /home/newub/w/PersonaLive/.venv/lib/python3.10/site-packages/diffusers/models/activations.py:102 in forward, code: hidden_states, gate = self.proj(hidden_states).chunk(2, dim=-1)
    chunk_1 = torch.ops.aten.chunk.default(linear_22, 2, -1);  linear_22 = None
    getitem_2: "f16[1, 4096, 1280]" = chunk_1[0]
    getitem_3: "f16[1, 4096, 1280]" = chunk_1[1];  chunk_1 = None
    
    # File: /home/newub/w/PersonaLive/.venv/lib/python3.10/site-packages/diffusers/models/activations.py:103 in forward, code: return hidden_states * self.gelu(gate)
    gelu_1: "f16[1, 4096, 1280]" = torch.ops.aten.gelu.default(getitem_3);  getitem_3 = None
    mul_4: "f16[1, 4096, 1280]" = torch.ops.aten.mul.Tensor(getitem_2, gelu_1);  getitem_2 = gelu_1 = None
    
    # File: /home/newub/w/PersonaLive/.venv/lib/python3.10/site-packages/torch/nn/modules/dropout.py:73 in forward, code: return F.dropout(input, self.p, self.training, self.inplace)
    dropout_7: "f16[1, 4096, 1280]" = torch.ops.aten.dropout.default(mul_4, 0.0, False);  mul_4 = None
    
    # File: /home/newub/w/PersonaLive/.venv/lib/python3.10/site-packages/torch/nn/modules/linear.py:134 in forward, code: return F.linear(input, self.weight, self.bias)
    linear_23: "f16[1, 4096, 320]" = torch.ops.aten.linear.default(dropout_7, arg54_1, arg55_1);  dropout_7 = arg54_1 = arg55_1 = None
    
    # File: /home/newub/w/PersonaLive/src/models/transformer_2d.py:356 in forward, code: hidden_states = block(
    add_10: "f16[1, 4096, 320]" = torch.ops.aten.add.Tensor(linear_23, add_9);  linear_23 = add_9 = None
    
    # File: /home/newub/w/PersonaLive/src/models/transformer_2d.py:370 in forward, code: hidden_states.reshape(batch, height, width, inner_dim)
    reshape_9: "f16[1, 64, 64, 320]" = torch.ops.aten.reshape.default(add_10, [1, 64, 64, 320]);  add_10 = None
    
    # File: /home/newub/w/PersonaLive/src/models/transformer_2d.py:371 in forward, code: .permute(0, 3, 1, 2)
    permute_3: "f16[1, 320, 64, 64]" = torch.ops.aten.permute.default(reshape_9, [0, 3, 1, 2]);  reshape_9 = None
    
    # File: /home/newub/w/PersonaLive/src/models/transformer_2d.py:372 in forward, code: .contiguous()
    contiguous_1: "f16[1, 320, 64, 64]" = torch.ops.aten.contiguous.default(permute_3);  permute_3 = None
    
    # File: /home/newub/w/PersonaLive/.venv/lib/python3.10/site-packages/torch/nn/modules/conv.py:553 in forward, code: return self._conv_forward(input, self.weight, self.bias)
    conv2d_8: "f16[1, 320, 64, 64]" = torch.ops.aten.conv2d.default(contiguous_1, arg56_1, arg57_1);  contiguous_1 = arg56_1 = arg57_1 = None
    
    # File: /home/newub/w/PersonaLive/src/models/transformer_2d.py:391 in forward, code: output = hidden_states + residual
    add_11: "f16[1, 320, 64, 64]" = torch.ops.aten.add.Tensor(conv2d_8, div_4);  conv2d_8 = div_4 = None
    
    # File: /home/newub/w/PersonaLive/.venv/lib/python3.10/site-packages/torch/nn/modules/conv.py:553 in forward, code: return self._conv_forward(input, self.weight, self.bias)
    conv2d_9: "f16[1, 320, 32, 32]" = torch.ops.aten.conv2d.default(add_11, arg78_1, arg79_1, [2, 2], [1, 1]);  arg78_1 = arg79_1 = None
    
    # File: /home/newub/w/PersonaLive/.venv/lib/python3.10/site-packages/torch/nn/modules/normalization.py:327 in forward, code: return F.group_norm(input, self.num_groups, self.weight, self.bias, self.eps)
    group_norm_6: "f16[1, 320, 32, 32]" = torch.ops.aten.group_norm.default(conv2d_9, 32, arg132_1, arg133_1, 1e-05, False);  arg132_1 = arg133_1 = None
    
    # File: /home/newub/w/PersonaLive/.venv/lib/python3.10/site-packages/torch/nn/modules/activation.py:475 in forward, code: return F.silu(input, inplace=self.inplace)
    silu_7: "f16[1, 320, 32, 32]" = torch.ops.aten.silu.default(group_norm_6);  group_norm_6 = None
    
    # File: /home/newub/w/PersonaLive/.venv/lib/python3.10/site-packages/torch/nn/modules/conv.py:553 in forward, code: return self._conv_forward(input, self.weight, self.bias)
    conv2d_10: "f16[1, 640, 32, 32]" = torch.ops.aten.conv2d.default(silu_7, arg134_1, arg135_1, [1, 1], [1, 1]);  silu_7 = arg134_1 = arg135_1 = None
    
    # File: /home/newub/w/PersonaLive/.venv/lib/python3.10/site-packages/torch/nn/modules/activation.py:475 in forward, code: return F.silu(input, inplace=self.inplace)
    silu_8: "f16[1, 1280]" = torch.ops.aten.silu.default(linear_1)
    
    # File: /home/newub/w/PersonaLive/.venv/lib/python3.10/site-packages/torch/nn/modules/linear.py:134 in forward, code: return F.linear(input, self.weight, self.bias)
    linear_24: "f16[1, 640]" = torch.ops.aten.linear.default(silu_8, arg136_1, arg137_1);  silu_8 = arg136_1 = arg137_1 = None
    
    # File: /home/newub/w/PersonaLive/.venv/lib/python3.10/site-packages/diffusers/models/resnet.py:351 in forward, code: temb = self.time_emb_proj(temb)[:, :, None, None]
    unsqueeze_6: "f16[1, 640, 1]" = torch.ops.aten.unsqueeze.default(linear_24, 2);  linear_24 = None
    unsqueeze_7: "f16[1, 640, 1, 1]" = torch.ops.aten.unsqueeze.default(unsqueeze_6, 3);  unsqueeze_6 = None
    
    # File: /home/newub/w/PersonaLive/.venv/lib/python3.10/site-packages/diffusers/models/resnet.py:355 in forward, code: hidden_states = hidden_states + temb
    add_12: "f16[1, 640, 32, 32]" = torch.ops.aten.add.Tensor(conv2d_10, unsqueeze_7);  conv2d_10 = unsqueeze_7 = None
    
    # File: /home/newub/w/PersonaLive/.venv/lib/python3.10/site-packages/torch/nn/modules/normalization.py:327 in forward, code: return F.group_norm(input, self.num_groups, self.weight, self.bias, self.eps)
    group_norm_7: "f16[1, 640, 32, 32]" = torch.ops.aten.group_norm.default(add_12, 32, arg138_1, arg139_1, 1e-05, False);  add_12 = arg138_1 = arg139_1 = None
    
    # File: /home/newub/w/PersonaLive/.venv/lib/python3.10/site-packages/torch/nn/modules/activation.py:475 in forward, code: return F.silu(input, inplace=self.inplace)
    silu_9: "f16[1, 640, 32, 32]" = torch.ops.aten.silu.default(group_norm_7);  group_norm_7 = None
    
    # File: /home/newub/w/PersonaLive/.venv/lib/python3.10/site-packages/torch/nn/modules/dropout.py:73 in forward, code: return F.dropout(input, self.p, self.training, self.inplace)
    dropout_8: "f16[1, 640, 32, 32]" = torch.ops.aten.dropout.default(silu_9, 0.0, False);  silu_9 = None
    
    # File: /home/newub/w/PersonaLive/.venv/lib/python3.10/site-packages/torch/nn/modules/conv.py:553 in forward, code: return self._conv_forward(input, self.weight, self.bias)
    conv2d_11: "f16[1, 640, 32, 32]" = torch.ops.aten.conv2d.default(dropout_8, arg140_1, arg141_1, [1, 1], [1, 1]);  dropout_8 = arg140_1 = arg141_1 = None
    conv2d_12: "f16[1, 640, 32, 32]" = torch.ops.aten.conv2d.default(conv2d_9, arg142_1, arg143_1);  arg142_1 = arg143_1 = None
    
    # File: /home/newub/w/PersonaLive/.venv/lib/python3.10/site-packages/diffusers/models/resnet.py:376 in forward, code: output_tensor = (input_tensor + hidden_states) / self.output_scale_factor
    add_13: "f16[1, 640, 32, 32]" = torch.ops.aten.add.Tensor(conv2d_12, conv2d_11);  conv2d_12 = conv2d_11 = None
    div_7: "f16[1, 640, 32, 32]" = torch.ops.aten.div.Tensor(add_13, 1.0);  add_13 = None
    
    # File: /home/newub/w/PersonaLive/.venv/lib/python3.10/site-packages/torch/nn/modules/normalization.py:327 in forward, code: return F.group_norm(input, self.num_groups, self.weight, self.bias, self.eps)
    group_norm_8: "f16[1, 640, 32, 32]" = torch.ops.aten.group_norm.default(div_7, 32, arg80_1, arg81_1, 1e-06, False);  arg80_1 = arg81_1 = None
    
    # File: /home/newub/w/PersonaLive/.venv/lib/python3.10/site-packages/torch/nn/modules/conv.py:553 in forward, code: return self._conv_forward(input, self.weight, self.bias)
    conv2d_13: "f16[1, 640, 32, 32]" = torch.ops.aten.conv2d.default(group_norm_8, arg82_1, arg83_1);  group_norm_8 = arg82_1 = arg83_1 = None
    
    # File: /home/newub/w/PersonaLive/src/models/transformer_2d.py:306 in forward, code: hidden_states = hidden_states.permute(0, 2, 3, 1).reshape(
    permute_4: "f16[1, 32, 32, 640]" = torch.ops.aten.permute.default(conv2d_13, [0, 2, 3, 1]);  conv2d_13 = None
    reshape_10: "f16[1, 1024, 640]" = torch.ops.aten.reshape.default(permute_4, [1, 1024, 640]);  permute_4 = None
    
    # File: /home/newub/w/PersonaLive/src/models/transformer_2d.py:328 in forward, code: ref_feature = hidden_states.reshape(batch, height, width, inner_dim)
    reshape_11: "f16[1, 32, 32, 640]" = torch.ops.aten.reshape.default(reshape_10, [1, 32, 32, 640]);  reshape_11 = None
    
    # File: /home/newub/w/PersonaLive/.venv/lib/python3.10/site-packages/torch/nn/modules/normalization.py:229 in forward, code: return F.layer_norm(
    layer_norm_6: "f16[1, 1024, 640]" = torch.ops.aten.layer_norm.default(reshape_10, [640], arg84_1, arg85_1, 1e-05, False);  arg84_1 = arg85_1 = None
    
    # File: /home/newub/w/PersonaLive/src/models/transformer_2d.py:356 in forward, code: hidden_states = block(
    clone_2: "f16[1, 1024, 640]" = torch.ops.aten.clone.default(layer_norm_6);  clone_2 = None
    
    # File: /home/newub/w/PersonaLive/.venv/lib/python3.10/site-packages/torch/nn/modules/linear.py:134 in forward, code: return F.linear(input, self.weight, self.bias)
    linear_25: "f16[1, 1024, 640]" = torch.ops.aten.linear.default(layer_norm_6, arg86_1);  arg86_1 = None
    linear_26: "f16[1, 1024, 640]" = torch.ops.aten.linear.default(layer_norm_6, arg87_1);  arg87_1 = None
    linear_27: "f16[1, 1024, 640]" = torch.ops.aten.linear.default(layer_norm_6, arg88_1);  layer_norm_6 = arg88_1 = None
    
    # File: /home/newub/w/PersonaLive/.venv/lib/python3.10/site-packages/diffusers/models/attention_processor.py:522 in forward, code: return self.processor(
    view_12: "f16[1, 1024, 8, 80]" = torch.ops.aten.view.default(linear_25, [1, -1, 8, 80]);  linear_25 = None
    transpose_16: "f16[1, 8, 1024, 80]" = torch.ops.aten.transpose.int(view_12, 1, 2);  view_12 = None
    view_13: "f16[1, 1024, 8, 80]" = torch.ops.aten.view.default(linear_26, [1, -1, 8, 80]);  linear_26 = None
    transpose_17: "f16[1, 8, 1024, 80]" = torch.ops.aten.transpose.int(view_13, 1, 2);  view_13 = None
    view_14: "f16[1, 1024, 8, 80]" = torch.ops.aten.view.default(linear_27, [1, -1, 8, 80]);  linear_27 = None
    transpose_18: "f16[1, 8, 1024, 80]" = torch.ops.aten.transpose.int(view_14, 1, 2);  view_14 = None
    scaled_dot_product_attention_4: "f16[1, 8, 1024, 80]" = torch.ops.aten.scaled_dot_product_attention.default(transpose_16, transpose_17, transpose_18);  transpose_16 = transpose_17 = transpose_18 = None
    transpose_19: "f16[1, 1024, 8, 80]" = torch.ops.aten.transpose.int(scaled_dot_product_attention_4, 1, 2);  scaled_dot_product_attention_4 = None
    reshape_12: "f16[1, 1024, 640]" = torch.ops.aten.reshape.default(transpose_19, [1, -1, 640]);  transpose_19 = None
    to_6: "f16[1, 1024, 640]" = torch.ops.aten.to.dtype(reshape_12, torch.float16);  reshape_12 = None
    
    # File: /home/newub/w/PersonaLive/.venv/lib/python3.10/site-packages/torch/nn/modules/linear.py:134 in forward, code: return F.linear(input, self.weight, self.bias)
    linear_28: "f16[1, 1024, 640]" = torch.ops.aten.linear.default(to_6, arg89_1, arg90_1);  to_6 = arg89_1 = arg90_1 = None
    
    # File: /home/newub/w/PersonaLive/.venv/lib/python3.10/site-packages/torch/nn/modules/dropout.py:73 in forward, code: return F.dropout(input, self.p, self.training, self.inplace)
    dropout_9: "f16[1, 1024, 640]" = torch.ops.aten.dropout.default(linear_28, 0.0, False);  linear_28 = None
    
    # File: /home/newub/w/PersonaLive/.venv/lib/python3.10/site-packages/diffusers/models/attention_processor.py:522 in forward, code: return self.processor(
    div_8: "f16[1, 1024, 640]" = torch.ops.aten.div.Tensor(dropout_9, 1.0);  dropout_9 = None
    
    # File: /home/newub/w/PersonaLive/src/models/transformer_2d.py:356 in forward, code: hidden_states = block(
    add_14: "f16[1, 1024, 640]" = torch.ops.aten.add.Tensor(div_8, reshape_10);  div_8 = reshape_10 = None
    
    # File: /home/newub/w/PersonaLive/.venv/lib/python3.10/site-packages/torch/nn/modules/normalization.py:229 in forward, code: return F.layer_norm(
    layer_norm_7: "f16[1, 1024, 640]" = torch.ops.aten.layer_norm.default(add_14, [640], arg91_1, arg92_1, 1e-05, False);  arg91_1 = arg92_1 = None
    
    # File: /home/newub/w/PersonaLive/.venv/lib/python3.10/site-packages/torch/nn/modules/linear.py:134 in forward, code: return F.linear(input, self.weight, self.bias)
    linear_29: "f16[1, 1024, 640]" = torch.ops.aten.linear.default(layer_norm_7, arg93_1);  layer_norm_7 = arg93_1 = None
    linear_30: "f16[1, 1, 640]" = torch.ops.aten.linear.default(arg684_1, arg94_1);  arg94_1 = None
    linear_31: "f16[1, 1, 640]" = torch.ops.aten.linear.default(arg684_1, arg95_1);  arg95_1 = None
    
    # File: /home/newub/w/PersonaLive/.venv/lib/python3.10/site-packages/diffusers/models/attention_processor.py:522 in forward, code: return self.processor(
    view_15: "f16[1, 1024, 8, 80]" = torch.ops.aten.view.default(linear_29, [1, -1, 8, 80]);  linear_29 = None
    transpose_20: "f16[1, 8, 1024, 80]" = torch.ops.aten.transpose.int(view_15, 1, 2);  view_15 = None
    view_16: "f16[1, 1, 8, 80]" = torch.ops.aten.view.default(linear_30, [1, -1, 8, 80]);  linear_30 = None
    transpose_21: "f16[1, 8, 1, 80]" = torch.ops.aten.transpose.int(view_16, 1, 2);  view_16 = None
    view_17: "f16[1, 1, 8, 80]" = torch.ops.aten.view.default(linear_31, [1, -1, 8, 80]);  linear_31 = None
    transpose_22: "f16[1, 8, 1, 80]" = torch.ops.aten.transpose.int(view_17, 1, 2);  view_17 = None
    scaled_dot_product_attention_5: "f16[1, 8, 1024, 80]" = torch.ops.aten.scaled_dot_product_attention.default(transpose_20, transpose_21, transpose_22);  transpose_20 = transpose_21 = transpose_22 = None
    transpose_23: "f16[1, 1024, 8, 80]" = torch.ops.aten.transpose.int(scaled_dot_product_attention_5, 1, 2);  scaled_dot_product_attention_5 = None
    reshape_13: "f16[1, 1024, 640]" = torch.ops.aten.reshape.default(transpose_23, [1, -1, 640]);  transpose_23 = None
    to_7: "f16[1, 1024, 640]" = torch.ops.aten.to.dtype(reshape_13, torch.float16);  reshape_13 = None
    
    # File: /home/newub/w/PersonaLive/.venv/lib/python3.10/site-packages/torch/nn/modules/linear.py:134 in forward, code: return F.linear(input, self.weight, self.bias)
    linear_32: "f16[1, 1024, 640]" = torch.ops.aten.linear.default(to_7, arg96_1, arg97_1);  to_7 = arg96_1 = arg97_1 = None
    
    # File: /home/newub/w/PersonaLive/.venv/lib/python3.10/site-packages/torch/nn/modules/dropout.py:73 in forward, code: return F.dropout(input, self.p, self.training, self.inplace)
    dropout_10: "f16[1, 1024, 640]" = torch.ops.aten.dropout.default(linear_32, 0.0, False);  linear_32 = None
    
    # File: /home/newub/w/PersonaLive/.venv/lib/python3.10/site-packages/diffusers/models/attention_processor.py:522 in forward, code: return self.processor(
    div_9: "f16[1, 1024, 640]" = torch.ops.aten.div.Tensor(dropout_10, 1.0);  dropout_10 = None
    
    # File: /home/newub/w/PersonaLive/src/models/transformer_2d.py:356 in forward, code: hidden_states = block(
    add_15: "f16[1, 1024, 640]" = torch.ops.aten.add.Tensor(div_9, add_14);  div_9 = add_14 = None
    
    # File: /home/newub/w/PersonaLive/.venv/lib/python3.10/site-packages/torch/nn/modules/normalization.py:229 in forward, code: return F.layer_norm(
    layer_norm_8: "f16[1, 1024, 640]" = torch.ops.aten.layer_norm.default(add_15, [640], arg98_1, arg99_1, 1e-05, False);  arg98_1 = arg99_1 = None
    
    # File: /home/newub/w/PersonaLive/.venv/lib/python3.10/site-packages/torch/nn/modules/linear.py:134 in forward, code: return F.linear(input, self.weight, self.bias)
    linear_33: "f16[1, 1024, 5120]" = torch.ops.aten.linear.default(layer_norm_8, arg100_1, arg101_1);  layer_norm_8 = arg100_1 = arg101_1 = None
    
    # File: /home/newub/w/PersonaLive/.venv/lib/python3.10/site-packages/diffusers/models/activations.py:102 in forward, code: hidden_states, gate = self.proj(hidden_states).chunk(2, dim=-1)
    chunk_2 = torch.ops.aten.chunk.default(linear_33, 2, -1);  linear_33 = None
    getitem_4: "f16[1, 1024, 2560]" = chunk_2[0]
    getitem_5: "f16[1, 1024, 2560]" = chunk_2[1];  chunk_2 = None
    
    # File: /home/newub/w/PersonaLive/.venv/lib/python3.10/site-packages/diffusers/models/activations.py:103 in forward, code: return hidden_states * self.gelu(gate)
    gelu_2: "f16[1, 1024, 2560]" = torch.ops.aten.gelu.default(getitem_5);  getitem_5 = None
    mul_5: "f16[1, 1024, 2560]" = torch.ops.aten.mul.Tensor(getitem_4, gelu_2);  getitem_4 = gelu_2 = None
    
    # File: /home/newub/w/PersonaLive/.venv/lib/python3.10/site-packages/torch/nn/modules/dropout.py:73 in forward, code: return F.dropout(input, self.p, self.training, self.inplace)
    dropout_11: "f16[1, 1024, 2560]" = torch.ops.aten.dropout.default(mul_5, 0.0, False);  mul_5 = None
    
    # File: /home/newub/w/PersonaLive/.venv/lib/python3.10/site-packages/torch/nn/modules/linear.py:134 in forward, code: return F.linear(input, self.weight, self.bias)
    linear_34: "f16[1, 1024, 640]" = torch.ops.aten.linear.default(dropout_11, arg102_1, arg103_1);  dropout_11 = arg102_1 = arg103_1 = None
    
    # File: /home/newub/w/PersonaLive/src/models/transformer_2d.py:356 in forward, code: hidden_states = block(
    add_16: "f16[1, 1024, 640]" = torch.ops.aten.add.Tensor(linear_34, add_15);  linear_34 = add_15 = None
    
    # File: /home/newub/w/PersonaLive/src/models/transformer_2d.py:370 in forward, code: hidden_states.reshape(batch, height, width, inner_dim)
    reshape_14: "f16[1, 32, 32, 640]" = torch.ops.aten.reshape.default(add_16, [1, 32, 32, 640]);  add_16 = None
    
    # File: /home/newub/w/PersonaLive/src/models/transformer_2d.py:371 in forward, code: .permute(0, 3, 1, 2)
    permute_5: "f16[1, 640, 32, 32]" = torch.ops.aten.permute.default(reshape_14, [0, 3, 1, 2]);  reshape_14 = None
    
    # File: /home/newub/w/PersonaLive/src/models/transformer_2d.py:372 in forward, code: .contiguous()
    contiguous_2: "f16[1, 640, 32, 32]" = torch.ops.aten.contiguous.default(permute_5);  permute_5 = None
    
    # File: /home/newub/w/PersonaLive/.venv/lib/python3.10/site-packages/torch/nn/modules/conv.py:553 in forward, code: return self._conv_forward(input, self.weight, self.bias)
    conv2d_14: "f16[1, 640, 32, 32]" = torch.ops.aten.conv2d.default(contiguous_2, arg104_1, arg105_1);  contiguous_2 = arg104_1 = arg105_1 = None
    
    # File: /home/newub/w/PersonaLive/src/models/transformer_2d.py:391 in forward, code: output = hidden_states + residual
    add_17: "f16[1, 640, 32, 32]" = torch.ops.aten.add.Tensor(conv2d_14, div_7);  conv2d_14 = div_7 = None
    
    # File: /home/newub/w/PersonaLive/.venv/lib/python3.10/site-packages/torch/nn/modules/normalization.py:327 in forward, code: return F.group_norm(input, self.num_groups, self.weight, self.bias, self.eps)
    group_norm_9: "f16[1, 640, 32, 32]" = torch.ops.aten.group_norm.default(add_17, 32, arg144_1, arg145_1, 1e-05, False);  arg144_1 = arg145_1 = None
    
    # File: /home/newub/w/PersonaLive/.venv/lib/python3.10/site-packages/torch/nn/modules/activation.py:475 in forward, code: return F.silu(input, inplace=self.inplace)
    silu_10: "f16[1, 640, 32, 32]" = torch.ops.aten.silu.default(group_norm_9);  group_norm_9 = None
    
    # File: /home/newub/w/PersonaLive/.venv/lib/python3.10/site-packages/torch/nn/modules/conv.py:553 in forward, code: return self._conv_forward(input, self.weight, self.bias)
    conv2d_15: "f16[1, 640, 32, 32]" = torch.ops.aten.conv2d.default(silu_10, arg146_1, arg147_1, [1, 1], [1, 1]);  silu_10 = arg146_1 = arg147_1 = None
    
    # File: /home/newub/w/PersonaLive/.venv/lib/python3.10/site-packages/torch/nn/modules/activation.py:475 in forward, code: return F.silu(input, inplace=self.inplace)
    silu_11: "f16[1, 1280]" = torch.ops.aten.silu.default(linear_1)
    
    # File: /home/newub/w/PersonaLive/.venv/lib/python3.10/site-packages/torch/nn/modules/linear.py:134 in forward, code: return F.linear(input, self.weight, self.bias)
    linear_35: "f16[1, 640]" = torch.ops.aten.linear.default(silu_11, arg148_1, arg149_1);  silu_11 = arg148_1 = arg149_1 = None
    
    # File: /home/newub/w/PersonaLive/.venv/lib/python3.10/site-packages/diffusers/models/resnet.py:351 in forward, code: temb = self.time_emb_proj(temb)[:, :, None, None]
    unsqueeze_8: "f16[1, 640, 1]" = torch.ops.aten.unsqueeze.default(linear_35, 2);  linear_35 = None
    unsqueeze_9: "f16[1, 640, 1, 1]" = torch.ops.aten.unsqueeze.default(unsqueeze_8, 3);  unsqueeze_8 = None
    
    # File: /home/newub/w/PersonaLive/.venv/lib/python3.10/site-packages/diffusers/models/resnet.py:355 in forward, code: hidden_states = hidden_states + temb
    add_18: "f16[1, 640, 32, 32]" = torch.ops.aten.add.Tensor(conv2d_15, unsqueeze_9);  conv2d_15 = unsqueeze_9 = None
    
    # File: /home/newub/w/PersonaLive/.venv/lib/python3.10/site-packages/torch/nn/modules/normalization.py:327 in forward, code: return F.group_norm(input, self.num_groups, self.weight, self.bias, self.eps)
    group_norm_10: "f16[1, 640, 32, 32]" = torch.ops.aten.group_norm.default(add_18, 32, arg150_1, arg151_1, 1e-05, False);  add_18 = arg150_1 = arg151_1 = None
    
    # File: /home/newub/w/PersonaLive/.venv/lib/python3.10/site-packages/torch/nn/modules/activation.py:475 in forward, code: return F.silu(input, inplace=self.inplace)
    silu_12: "f16[1, 640, 32, 32]" = torch.ops.aten.silu.default(group_norm_10);  group_norm_10 = None
    
    # File: /home/newub/w/PersonaLive/.venv/lib/python3.10/site-packages/torch/nn/modules/dropout.py:73 in forward, code: return F.dropout(input, self.p, self.training, self.inplace)
    dropout_12: "f16[1, 640, 32, 32]" = torch.ops.aten.dropout.default(silu_12, 0.0, False);  silu_12 = None
    
    # File: /home/newub/w/PersonaLive/.venv/lib/python3.10/site-packages/torch/nn/modules/conv.py:553 in forward, code: return self._conv_forward(input, self.weight, self.bias)
    conv2d_16: "f16[1, 640, 32, 32]" = torch.ops.aten.conv2d.default(dropout_12, arg152_1, arg153_1, [1, 1], [1, 1]);  dropout_12 = arg152_1 = arg153_1 = None
    
    # File: /home/newub/w/PersonaLive/.venv/lib/python3.10/site-packages/diffusers/models/resnet.py:376 in forward, code: output_tensor = (input_tensor + hidden_states) / self.output_scale_factor
    add_19: "f16[1, 640, 32, 32]" = torch.ops.aten.add.Tensor(add_17, conv2d_16);  conv2d_16 = None
    div_10: "f16[1, 640, 32, 32]" = torch.ops.aten.div.Tensor(add_19, 1.0);  add_19 = None
    
    # File: /home/newub/w/PersonaLive/.venv/lib/python3.10/site-packages/torch/nn/modules/normalization.py:327 in forward, code: return F.group_norm(input, self.num_groups, self.weight, self.bias, self.eps)
    group_norm_11: "f16[1, 640, 32, 32]" = torch.ops.aten.group_norm.default(div_10, 32, arg106_1, arg107_1, 1e-06, False);  arg106_1 = arg107_1 = None
    
    # File: /home/newub/w/PersonaLive/.venv/lib/python3.10/site-packages/torch/nn/modules/conv.py:553 in forward, code: return self._conv_forward(input, self.weight, self.bias)
    conv2d_17: "f16[1, 640, 32, 32]" = torch.ops.aten.conv2d.default(group_norm_11, arg108_1, arg109_1);  group_norm_11 = arg108_1 = arg109_1 = None
    
    # File: /home/newub/w/PersonaLive/src/models/transformer_2d.py:306 in forward, code: hidden_states = hidden_states.permute(0, 2, 3, 1).reshape(
    permute_6: "f16[1, 32, 32, 640]" = torch.ops.aten.permute.default(conv2d_17, [0, 2, 3, 1]);  conv2d_17 = None
    reshape_15: "f16[1, 1024, 640]" = torch.ops.aten.reshape.default(permute_6, [1, 1024, 640]);  permute_6 = None
    
    # File: /home/newub/w/PersonaLive/src/models/transformer_2d.py:328 in forward, code: ref_feature = hidden_states.reshape(batch, height, width, inner_dim)
    reshape_16: "f16[1, 32, 32, 640]" = torch.ops.aten.reshape.default(reshape_15, [1, 32, 32, 640]);  reshape_16 = None
    
    # File: /home/newub/w/PersonaLive/.venv/lib/python3.10/site-packages/torch/nn/modules/normalization.py:229 in forward, code: return F.layer_norm(
    layer_norm_9: "f16[1, 1024, 640]" = torch.ops.aten.layer_norm.default(reshape_15, [640], arg110_1, arg111_1, 1e-05, False);  arg110_1 = arg111_1 = None
    
    # File: /home/newub/w/PersonaLive/src/models/transformer_2d.py:356 in forward, code: hidden_states = block(
    clone_3: "f16[1, 1024, 640]" = torch.ops.aten.clone.default(layer_norm_9);  clone_3 = None
    
    # File: /home/newub/w/PersonaLive/.venv/lib/python3.10/site-packages/torch/nn/modules/linear.py:134 in forward, code: return F.linear(input, self.weight, self.bias)
    linear_36: "f16[1, 1024, 640]" = torch.ops.aten.linear.default(layer_norm_9, arg112_1);  arg112_1 = None
    linear_37: "f16[1, 1024, 640]" = torch.ops.aten.linear.default(layer_norm_9, arg113_1);  arg113_1 = None
    linear_38: "f16[1, 1024, 640]" = torch.ops.aten.linear.default(layer_norm_9, arg114_1);  layer_norm_9 = arg114_1 = None
    
    # File: /home/newub/w/PersonaLive/.venv/lib/python3.10/site-packages/diffusers/models/attention_processor.py:522 in forward, code: return self.processor(
    view_18: "f16[1, 1024, 8, 80]" = torch.ops.aten.view.default(linear_36, [1, -1, 8, 80]);  linear_36 = None
    transpose_24: "f16[1, 8, 1024, 80]" = torch.ops.aten.transpose.int(view_18, 1, 2);  view_18 = None
    view_19: "f16[1, 1024, 8, 80]" = torch.ops.aten.view.default(linear_37, [1, -1, 8, 80]);  linear_37 = None
    transpose_25: "f16[1, 8, 1024, 80]" = torch.ops.aten.transpose.int(view_19, 1, 2);  view_19 = None
    view_20: "f16[1, 1024, 8, 80]" = torch.ops.aten.view.default(linear_38, [1, -1, 8, 80]);  linear_38 = None
    transpose_26: "f16[1, 8, 1024, 80]" = torch.ops.aten.transpose.int(view_20, 1, 2);  view_20 = None
    scaled_dot_product_attention_6: "f16[1, 8, 1024, 80]" = torch.ops.aten.scaled_dot_product_attention.default(transpose_24, transpose_25, transpose_26);  transpose_24 = transpose_25 = transpose_26 = None
    transpose_27: "f16[1, 1024, 8, 80]" = torch.ops.aten.transpose.int(scaled_dot_product_attention_6, 1, 2);  scaled_dot_product_attention_6 = None
    reshape_17: "f16[1, 1024, 640]" = torch.ops.aten.reshape.default(transpose_27, [1, -1, 640]);  transpose_27 = None
    to_8: "f16[1, 1024, 640]" = torch.ops.aten.to.dtype(reshape_17, torch.float16);  reshape_17 = None
    
    # File: /home/newub/w/PersonaLive/.venv/lib/python3.10/site-packages/torch/nn/modules/linear.py:134 in forward, code: return F.linear(input, self.weight, self.bias)
    linear_39: "f16[1, 1024, 640]" = torch.ops.aten.linear.default(to_8, arg115_1, arg116_1);  to_8 = arg115_1 = arg116_1 = None
    
    # File: /home/newub/w/PersonaLive/.venv/lib/python3.10/site-packages/torch/nn/modules/dropout.py:73 in forward, code: return F.dropout(input, self.p, self.training, self.inplace)
    dropout_13: "f16[1, 1024, 640]" = torch.ops.aten.dropout.default(linear_39, 0.0, False);  linear_39 = None
    
    # File: /home/newub/w/PersonaLive/.venv/lib/python3.10/site-packages/diffusers/models/attention_processor.py:522 in forward, code: return self.processor(
    div_11: "f16[1, 1024, 640]" = torch.ops.aten.div.Tensor(dropout_13, 1.0);  dropout_13 = None
    
    # File: /home/newub/w/PersonaLive/src/models/transformer_2d.py:356 in forward, code: hidden_states = block(
    add_20: "f16[1, 1024, 640]" = torch.ops.aten.add.Tensor(div_11, reshape_15);  div_11 = reshape_15 = None
    
    # File: /home/newub/w/PersonaLive/.venv/lib/python3.10/site-packages/torch/nn/modules/normalization.py:229 in forward, code: return F.layer_norm(
    layer_norm_10: "f16[1, 1024, 640]" = torch.ops.aten.layer_norm.default(add_20, [640], arg117_1, arg118_1, 1e-05, False);  arg117_1 = arg118_1 = None
    
    # File: /home/newub/w/PersonaLive/.venv/lib/python3.10/site-packages/torch/nn/modules/linear.py:134 in forward, code: return F.linear(input, self.weight, self.bias)
    linear_40: "f16[1, 1024, 640]" = torch.ops.aten.linear.default(layer_norm_10, arg119_1);  layer_norm_10 = arg119_1 = None
    linear_41: "f16[1, 1, 640]" = torch.ops.aten.linear.default(arg684_1, arg120_1);  arg120_1 = None
    linear_42: "f16[1, 1, 640]" = torch.ops.aten.linear.default(arg684_1, arg121_1);  arg121_1 = None
    
    # File: /home/newub/w/PersonaLive/.venv/lib/python3.10/site-packages/diffusers/models/attention_processor.py:522 in forward, code: return self.processor(
    view_21: "f16[1, 1024, 8, 80]" = torch.ops.aten.view.default(linear_40, [1, -1, 8, 80]);  linear_40 = None
    transpose_28: "f16[1, 8, 1024, 80]" = torch.ops.aten.transpose.int(view_21, 1, 2);  view_21 = None
    view_22: "f16[1, 1, 8, 80]" = torch.ops.aten.view.default(linear_41, [1, -1, 8, 80]);  linear_41 = None
    transpose_29: "f16[1, 8, 1, 80]" = torch.ops.aten.transpose.int(view_22, 1, 2);  view_22 = None
    view_23: "f16[1, 1, 8, 80]" = torch.ops.aten.view.default(linear_42, [1, -1, 8, 80]);  linear_42 = None
    transpose_30: "f16[1, 8, 1, 80]" = torch.ops.aten.transpose.int(view_23, 1, 2);  view_23 = None
    scaled_dot_product_attention_7: "f16[1, 8, 1024, 80]" = torch.ops.aten.scaled_dot_product_attention.default(transpose_28, transpose_29, transpose_30);  transpose_28 = transpose_29 = transpose_30 = None
    transpose_31: "f16[1, 1024, 8, 80]" = torch.ops.aten.transpose.int(scaled_dot_product_attention_7, 1, 2);  scaled_dot_product_attention_7 = None
    reshape_18: "f16[1, 1024, 640]" = torch.ops.aten.reshape.default(transpose_31, [1, -1, 640]);  transpose_31 = None
    to_9: "f16[1, 1024, 640]" = torch.ops.aten.to.dtype(reshape_18, torch.float16);  reshape_18 = None
    
    # File: /home/newub/w/PersonaLive/.venv/lib/python3.10/site-packages/torch/nn/modules/linear.py:134 in forward, code: return F.linear(input, self.weight, self.bias)
    linear_43: "f16[1, 1024, 640]" = torch.ops.aten.linear.default(to_9, arg122_1, arg123_1);  to_9 = arg122_1 = arg123_1 = None
    
    # File: /home/newub/w/PersonaLive/.venv/lib/python3.10/site-packages/torch/nn/modules/dropout.py:73 in forward, code: return F.dropout(input, self.p, self.training, self.inplace)
    dropout_14: "f16[1, 1024, 640]" = torch.ops.aten.dropout.default(linear_43, 0.0, False);  linear_43 = None
    
    # File: /home/newub/w/PersonaLive/.venv/lib/python3.10/site-packages/diffusers/models/attention_processor.py:522 in forward, code: return self.processor(
    div_12: "f16[1, 1024, 640]" = torch.ops.aten.div.Tensor(dropout_14, 1.0);  dropout_14 = None
    
    # File: /home/newub/w/PersonaLive/src/models/transformer_2d.py:356 in forward, code: hidden_states = block(
    add_21: "f16[1, 1024, 640]" = torch.ops.aten.add.Tensor(div_12, add_20);  div_12 = add_20 = None
    
    # File: /home/newub/w/PersonaLive/.venv/lib/python3.10/site-packages/torch/nn/modules/normalization.py:229 in forward, code: return F.layer_norm(
    layer_norm_11: "f16[1, 1024, 640]" = torch.ops.aten.layer_norm.default(add_21, [640], arg124_1, arg125_1, 1e-05, False);  arg124_1 = arg125_1 = None
    
    # File: /home/newub/w/PersonaLive/.venv/lib/python3.10/site-packages/torch/nn/modules/linear.py:134 in forward, code: return F.linear(input, self.weight, self.bias)
    linear_44: "f16[1, 1024, 5120]" = torch.ops.aten.linear.default(layer_norm_11, arg126_1, arg127_1);  layer_norm_11 = arg126_1 = arg127_1 = None
    
    # File: /home/newub/w/PersonaLive/.venv/lib/python3.10/site-packages/diffusers/models/activations.py:102 in forward, code: hidden_states, gate = self.proj(hidden_states).chunk(2, dim=-1)
    chunk_3 = torch.ops.aten.chunk.default(linear_44, 2, -1);  linear_44 = None
    getitem_6: "f16[1, 1024, 2560]" = chunk_3[0]
    getitem_7: "f16[1, 1024, 2560]" = chunk_3[1];  chunk_3 = None
    
    # File: /home/newub/w/PersonaLive/.venv/lib/python3.10/site-packages/diffusers/models/activations.py:103 in forward, code: return hidden_states * self.gelu(gate)
    gelu_3: "f16[1, 1024, 2560]" = torch.ops.aten.gelu.default(getitem_7);  getitem_7 = None
    mul_6: "f16[1, 1024, 2560]" = torch.ops.aten.mul.Tensor(getitem_6, gelu_3);  getitem_6 = gelu_3 = None
    
    # File: /home/newub/w/PersonaLive/.venv/lib/python3.10/site-packages/torch/nn/modules/dropout.py:73 in forward, code: return F.dropout(input, self.p, self.training, self.inplace)
    dropout_15: "f16[1, 1024, 2560]" = torch.ops.aten.dropout.default(mul_6, 0.0, False);  mul_6 = None
    
    # File: /home/newub/w/PersonaLive/.venv/lib/python3.10/site-packages/torch/nn/modules/linear.py:134 in forward, code: return F.linear(input, self.weight, self.bias)
    linear_45: "f16[1, 1024, 640]" = torch.ops.aten.linear.default(dropout_15, arg128_1, arg129_1);  dropout_15 = arg128_1 = arg129_1 = None
    
    # File: /home/newub/w/PersonaLive/src/models/transformer_2d.py:356 in forward, code: hidden_states = block(
    add_22: "f16[1, 1024, 640]" = torch.ops.aten.add.Tensor(linear_45, add_21);  linear_45 = add_21 = None
    
    # File: /home/newub/w/PersonaLive/src/models/transformer_2d.py:370 in forward, code: hidden_states.reshape(batch, height, width, inner_dim)
    reshape_19: "f16[1, 32, 32, 640]" = torch.ops.aten.reshape.default(add_22, [1, 32, 32, 640]);  add_22 = None
    
    # File: /home/newub/w/PersonaLive/src/models/transformer_2d.py:371 in forward, code: .permute(0, 3, 1, 2)
    permute_7: "f16[1, 640, 32, 32]" = torch.ops.aten.permute.default(reshape_19, [0, 3, 1, 2]);  reshape_19 = None
    
    # File: /home/newub/w/PersonaLive/src/models/transformer_2d.py:372 in forward, code: .contiguous()
    contiguous_3: "f16[1, 640, 32, 32]" = torch.ops.aten.contiguous.default(permute_7);  permute_7 = None
    
    # File: /home/newub/w/PersonaLive/.venv/lib/python3.10/site-packages/torch/nn/modules/conv.py:553 in forward, code: return self._conv_forward(input, self.weight, self.bias)
    conv2d_18: "f16[1, 640, 32, 32]" = torch.ops.aten.conv2d.default(contiguous_3, arg130_1, arg131_1);  contiguous_3 = arg130_1 = arg131_1 = None
    
    # File: /home/newub/w/PersonaLive/src/models/transformer_2d.py:391 in forward, code: output = hidden_states + residual
    add_23: "f16[1, 640, 32, 32]" = torch.ops.aten.add.Tensor(conv2d_18, div_10);  conv2d_18 = div_10 = None
    
    # File: /home/newub/w/PersonaLive/.venv/lib/python3.10/site-packages/torch/nn/modules/conv.py:553 in forward, code: return self._conv_forward(input, self.weight, self.bias)
    conv2d_19: "f16[1, 640, 16, 16]" = torch.ops.aten.conv2d.default(add_23, arg154_1, arg155_1, [2, 2], [1, 1]);  arg154_1 = arg155_1 = None
    
    # File: /home/newub/w/PersonaLive/.venv/lib/python3.10/site-packages/torch/nn/modules/normalization.py:327 in forward, code: return F.group_norm(input, self.num_groups, self.weight, self.bias, self.eps)
    group_norm_12: "f16[1, 640, 16, 16]" = torch.ops.aten.group_norm.default(conv2d_19, 32, arg208_1, arg209_1, 1e-05, False);  arg208_1 = arg209_1 = None
    
    # File: /home/newub/w/PersonaLive/.venv/lib/python3.10/site-packages/torch/nn/modules/activation.py:475 in forward, code: return F.silu(input, inplace=self.inplace)
    silu_13: "f16[1, 640, 16, 16]" = torch.ops.aten.silu.default(group_norm_12);  group_norm_12 = None
    
    # File: /home/newub/w/PersonaLive/.venv/lib/python3.10/site-packages/torch/nn/modules/conv.py:553 in forward, code: return self._conv_forward(input, self.weight, self.bias)
    conv2d_20: "f16[1, 1280, 16, 16]" = torch.ops.aten.conv2d.default(silu_13, arg210_1, arg211_1, [1, 1], [1, 1]);  silu_13 = arg210_1 = arg211_1 = None
    
    # File: /home/newub/w/PersonaLive/.venv/lib/python3.10/site-packages/torch/nn/modules/activation.py:475 in forward, code: return F.silu(input, inplace=self.inplace)
    silu_14: "f16[1, 1280]" = torch.ops.aten.silu.default(linear_1)
    
    # File: /home/newub/w/PersonaLive/.venv/lib/python3.10/site-packages/torch/nn/modules/linear.py:134 in forward, code: return F.linear(input, self.weight, self.bias)
    linear_46: "f16[1, 1280]" = torch.ops.aten.linear.default(silu_14, arg212_1, arg213_1);  silu_14 = arg212_1 = arg213_1 = None
    
    # File: /home/newub/w/PersonaLive/.venv/lib/python3.10/site-packages/diffusers/models/resnet.py:351 in forward, code: temb = self.time_emb_proj(temb)[:, :, None, None]
    unsqueeze_10: "f16[1, 1280, 1]" = torch.ops.aten.unsqueeze.default(linear_46, 2);  linear_46 = None
    unsqueeze_11: "f16[1, 1280, 1, 1]" = torch.ops.aten.unsqueeze.default(unsqueeze_10, 3);  unsqueeze_10 = None
    
    # File: /home/newub/w/PersonaLive/.venv/lib/python3.10/site-packages/diffusers/models/resnet.py:355 in forward, code: hidden_states = hidden_states + temb
    add_24: "f16[1, 1280, 16, 16]" = torch.ops.aten.add.Tensor(conv2d_20, unsqueeze_11);  conv2d_20 = unsqueeze_11 = None
    
    # File: /home/newub/w/PersonaLive/.venv/lib/python3.10/site-packages/torch/nn/modules/normalization.py:327 in forward, code: return F.group_norm(input, self.num_groups, self.weight, self.bias, self.eps)
    group_norm_13: "f16[1, 1280, 16, 16]" = torch.ops.aten.group_norm.default(add_24, 32, arg214_1, arg215_1, 1e-05, False);  add_24 = arg214_1 = arg215_1 = None
    
    # File: /home/newub/w/PersonaLive/.venv/lib/python3.10/site-packages/torch/nn/modules/activation.py:475 in forward, code: return F.silu(input, inplace=self.inplace)
    silu_15: "f16[1, 1280, 16, 16]" = torch.ops.aten.silu.default(group_norm_13);  group_norm_13 = None
    
    # File: /home/newub/w/PersonaLive/.venv/lib/python3.10/site-packages/torch/nn/modules/dropout.py:73 in forward, code: return F.dropout(input, self.p, self.training, self.inplace)
    dropout_16: "f16[1, 1280, 16, 16]" = torch.ops.aten.dropout.default(silu_15, 0.0, False);  silu_15 = None
    
    # File: /home/newub/w/PersonaLive/.venv/lib/python3.10/site-packages/torch/nn/modules/conv.py:553 in forward, code: return self._conv_forward(input, self.weight, self.bias)
    conv2d_21: "f16[1, 1280, 16, 16]" = torch.ops.aten.conv2d.default(dropout_16, arg216_1, arg217_1, [1, 1], [1, 1]);  dropout_16 = arg216_1 = arg217_1 = None
    conv2d_22: "f16[1, 1280, 16, 16]" = torch.ops.aten.conv2d.default(conv2d_19, arg218_1, arg219_1);  arg218_1 = arg219_1 = None
    
    # File: /home/newub/w/PersonaLive/.venv/lib/python3.10/site-packages/diffusers/models/resnet.py:376 in forward, code: output_tensor = (input_tensor + hidden_states) / self.output_scale_factor
    add_25: "f16[1, 1280, 16, 16]" = torch.ops.aten.add.Tensor(conv2d_22, conv2d_21);  conv2d_22 = conv2d_21 = None
    div_13: "f16[1, 1280, 16, 16]" = torch.ops.aten.div.Tensor(add_25, 1.0);  add_25 = None
    
    # File: /home/newub/w/PersonaLive/.venv/lib/python3.10/site-packages/torch/nn/modules/normalization.py:327 in forward, code: return F.group_norm(input, self.num_groups, self.weight, self.bias, self.eps)
    group_norm_14: "f16[1, 1280, 16, 16]" = torch.ops.aten.group_norm.default(div_13, 32, arg156_1, arg157_1, 1e-06, False);  arg156_1 = arg157_1 = None
    
    # File: /home/newub/w/PersonaLive/.venv/lib/python3.10/site-packages/torch/nn/modules/conv.py:553 in forward, code: return self._conv_forward(input, self.weight, self.bias)
    conv2d_23: "f16[1, 1280, 16, 16]" = torch.ops.aten.conv2d.default(group_norm_14, arg158_1, arg159_1);  group_norm_14 = arg158_1 = arg159_1 = None
    
    # File: /home/newub/w/PersonaLive/src/models/transformer_2d.py:306 in forward, code: hidden_states = hidden_states.permute(0, 2, 3, 1).reshape(
    permute_8: "f16[1, 16, 16, 1280]" = torch.ops.aten.permute.default(conv2d_23, [0, 2, 3, 1]);  conv2d_23 = None
    reshape_20: "f16[1, 256, 1280]" = torch.ops.aten.reshape.default(permute_8, [1, 256, 1280]);  permute_8 = None
    
    # File: /home/newub/w/PersonaLive/src/models/transformer_2d.py:328 in forward, code: ref_feature = hidden_states.reshape(batch, height, width, inner_dim)
    reshape_21: "f16[1, 16, 16, 1280]" = torch.ops.aten.reshape.default(reshape_20, [1, 16, 16, 1280]);  reshape_21 = None
    
    # File: /home/newub/w/PersonaLive/.venv/lib/python3.10/site-packages/torch/nn/modules/normalization.py:229 in forward, code: return F.layer_norm(
    layer_norm_12: "f16[1, 256, 1280]" = torch.ops.aten.layer_norm.default(reshape_20, [1280], arg160_1, arg161_1, 1e-05, False);  arg160_1 = arg161_1 = None
    
    # File: /home/newub/w/PersonaLive/src/models/transformer_2d.py:356 in forward, code: hidden_states = block(
    clone_4: "f16[1, 256, 1280]" = torch.ops.aten.clone.default(layer_norm_12);  clone_4 = None
    
    # File: /home/newub/w/PersonaLive/.venv/lib/python3.10/site-packages/torch/nn/modules/linear.py:134 in forward, code: return F.linear(input, self.weight, self.bias)
    linear_47: "f16[1, 256, 1280]" = torch.ops.aten.linear.default(layer_norm_12, arg162_1);  arg162_1 = None
    linear_48: "f16[1, 256, 1280]" = torch.ops.aten.linear.default(layer_norm_12, arg163_1);  arg163_1 = None
    linear_49: "f16[1, 256, 1280]" = torch.ops.aten.linear.default(layer_norm_12, arg164_1);  layer_norm_12 = arg164_1 = None
    
    # File: /home/newub/w/PersonaLive/.venv/lib/python3.10/site-packages/diffusers/models/attention_processor.py:522 in forward, code: return self.processor(
    view_24: "f16[1, 256, 8, 160]" = torch.ops.aten.view.default(linear_47, [1, -1, 8, 160]);  linear_47 = None
    transpose_32: "f16[1, 8, 256, 160]" = torch.ops.aten.transpose.int(view_24, 1, 2);  view_24 = None
    view_25: "f16[1, 256, 8, 160]" = torch.ops.aten.view.default(linear_48, [1, -1, 8, 160]);  linear_48 = None
    transpose_33: "f16[1, 8, 256, 160]" = torch.ops.aten.transpose.int(view_25, 1, 2);  view_25 = None
    view_26: "f16[1, 256, 8, 160]" = torch.ops.aten.view.default(linear_49, [1, -1, 8, 160]);  linear_49 = None
    transpose_34: "f16[1, 8, 256, 160]" = torch.ops.aten.transpose.int(view_26, 1, 2);  view_26 = None
    scaled_dot_product_attention_8: "f16[1, 8, 256, 160]" = torch.ops.aten.scaled_dot_product_attention.default(transpose_32, transpose_33, transpose_34);  transpose_32 = transpose_33 = transpose_34 = None
    transpose_35: "f16[1, 256, 8, 160]" = torch.ops.aten.transpose.int(scaled_dot_product_attention_8, 1, 2);  scaled_dot_product_attention_8 = None
    reshape_22: "f16[1, 256, 1280]" = torch.ops.aten.reshape.default(transpose_35, [1, -1, 1280]);  transpose_35 = None
    to_10: "f16[1, 256, 1280]" = torch.ops.aten.to.dtype(reshape_22, torch.float16);  reshape_22 = None
    
    # File: /home/newub/w/PersonaLive/.venv/lib/python3.10/site-packages/torch/nn/modules/linear.py:134 in forward, code: return F.linear(input, self.weight, self.bias)
    linear_50: "f16[1, 256, 1280]" = torch.ops.aten.linear.default(to_10, arg165_1, arg166_1);  to_10 = arg165_1 = arg166_1 = None
    
    # File: /home/newub/w/PersonaLive/.venv/lib/python3.10/site-packages/torch/nn/modules/dropout.py:73 in forward, code: return F.dropout(input, self.p, self.training, self.inplace)
    dropout_17: "f16[1, 256, 1280]" = torch.ops.aten.dropout.default(linear_50, 0.0, False);  linear_50 = None
    
    # File: /home/newub/w/PersonaLive/.venv/lib/python3.10/site-packages/diffusers/models/attention_processor.py:522 in forward, code: return self.processor(
    div_14: "f16[1, 256, 1280]" = torch.ops.aten.div.Tensor(dropout_17, 1.0);  dropout_17 = None
    
    # File: /home/newub/w/PersonaLive/src/models/transformer_2d.py:356 in forward, code: hidden_states = block(
    add_26: "f16[1, 256, 1280]" = torch.ops.aten.add.Tensor(div_14, reshape_20);  div_14 = reshape_20 = None
    
    # File: /home/newub/w/PersonaLive/.venv/lib/python3.10/site-packages/torch/nn/modules/normalization.py:229 in forward, code: return F.layer_norm(
    layer_norm_13: "f16[1, 256, 1280]" = torch.ops.aten.layer_norm.default(add_26, [1280], arg167_1, arg168_1, 1e-05, False);  arg167_1 = arg168_1 = None
    
    # File: /home/newub/w/PersonaLive/.venv/lib/python3.10/site-packages/torch/nn/modules/linear.py:134 in forward, code: return F.linear(input, self.weight, self.bias)
    linear_51: "f16[1, 256, 1280]" = torch.ops.aten.linear.default(layer_norm_13, arg169_1);  layer_norm_13 = arg169_1 = None
    linear_52: "f16[1, 1, 1280]" = torch.ops.aten.linear.default(arg684_1, arg170_1);  arg170_1 = None
    linear_53: "f16[1, 1, 1280]" = torch.ops.aten.linear.default(arg684_1, arg171_1);  arg171_1 = None
    
    # File: /home/newub/w/PersonaLive/.venv/lib/python3.10/site-packages/diffusers/models/attention_processor.py:522 in forward, code: return self.processor(
    view_27: "f16[1, 256, 8, 160]" = torch.ops.aten.view.default(linear_51, [1, -1, 8, 160]);  linear_51 = None
    transpose_36: "f16[1, 8, 256, 160]" = torch.ops.aten.transpose.int(view_27, 1, 2);  view_27 = None
    view_28: "f16[1, 1, 8, 160]" = torch.ops.aten.view.default(linear_52, [1, -1, 8, 160]);  linear_52 = None
    transpose_37: "f16[1, 8, 1, 160]" = torch.ops.aten.transpose.int(view_28, 1, 2);  view_28 = None
    view_29: "f16[1, 1, 8, 160]" = torch.ops.aten.view.default(linear_53, [1, -1, 8, 160]);  linear_53 = None
    transpose_38: "f16[1, 8, 1, 160]" = torch.ops.aten.transpose.int(view_29, 1, 2);  view_29 = None
    scaled_dot_product_attention_9: "f16[1, 8, 256, 160]" = torch.ops.aten.scaled_dot_product_attention.default(transpose_36, transpose_37, transpose_38);  transpose_36 = transpose_37 = transpose_38 = None
    transpose_39: "f16[1, 256, 8, 160]" = torch.ops.aten.transpose.int(scaled_dot_product_attention_9, 1, 2);  scaled_dot_product_attention_9 = None
    reshape_23: "f16[1, 256, 1280]" = torch.ops.aten.reshape.default(transpose_39, [1, -1, 1280]);  transpose_39 = None
    to_11: "f16[1, 256, 1280]" = torch.ops.aten.to.dtype(reshape_23, torch.float16);  reshape_23 = None
    
    # File: /home/newub/w/PersonaLive/.venv/lib/python3.10/site-packages/torch/nn/modules/linear.py:134 in forward, code: return F.linear(input, self.weight, self.bias)
    linear_54: "f16[1, 256, 1280]" = torch.ops.aten.linear.default(to_11, arg172_1, arg173_1);  to_11 = arg172_1 = arg173_1 = None
    
    # File: /home/newub/w/PersonaLive/.venv/lib/python3.10/site-packages/torch/nn/modules/dropout.py:73 in forward, code: return F.dropout(input, self.p, self.training, self.inplace)
    dropout_18: "f16[1, 256, 1280]" = torch.ops.aten.dropout.default(linear_54, 0.0, False);  linear_54 = None
    
    # File: /home/newub/w/PersonaLive/.venv/lib/python3.10/site-packages/diffusers/models/attention_processor.py:522 in forward, code: return self.processor(
    div_15: "f16[1, 256, 1280]" = torch.ops.aten.div.Tensor(dropout_18, 1.0);  dropout_18 = None
    
    # File: /home/newub/w/PersonaLive/src/models/transformer_2d.py:356 in forward, code: hidden_states = block(
    add_27: "f16[1, 256, 1280]" = torch.ops.aten.add.Tensor(div_15, add_26);  div_15 = add_26 = None
    
    # File: /home/newub/w/PersonaLive/.venv/lib/python3.10/site-packages/torch/nn/modules/normalization.py:229 in forward, code: return F.layer_norm(
    layer_norm_14: "f16[1, 256, 1280]" = torch.ops.aten.layer_norm.default(add_27, [1280], arg174_1, arg175_1, 1e-05, False);  arg174_1 = arg175_1 = None
    
    # File: /home/newub/w/PersonaLive/.venv/lib/python3.10/site-packages/torch/nn/modules/linear.py:134 in forward, code: return F.linear(input, self.weight, self.bias)
    linear_55: "f16[1, 256, 10240]" = torch.ops.aten.linear.default(layer_norm_14, arg176_1, arg177_1);  layer_norm_14 = arg176_1 = arg177_1 = None
    
    # File: /home/newub/w/PersonaLive/.venv/lib/python3.10/site-packages/diffusers/models/activations.py:102 in forward, code: hidden_states, gate = self.proj(hidden_states).chunk(2, dim=-1)
    chunk_4 = torch.ops.aten.chunk.default(linear_55, 2, -1);  linear_55 = None
    getitem_8: "f16[1, 256, 5120]" = chunk_4[0]
    getitem_9: "f16[1, 256, 5120]" = chunk_4[1];  chunk_4 = None
    
    # File: /home/newub/w/PersonaLive/.venv/lib/python3.10/site-packages/diffusers/models/activations.py:103 in forward, code: return hidden_states * self.gelu(gate)
    gelu_4: "f16[1, 256, 5120]" = torch.ops.aten.gelu.default(getitem_9);  getitem_9 = None
    mul_7: "f16[1, 256, 5120]" = torch.ops.aten.mul.Tensor(getitem_8, gelu_4);  getitem_8 = gelu_4 = None
    
    # File: /home/newub/w/PersonaLive/.venv/lib/python3.10/site-packages/torch/nn/modules/dropout.py:73 in forward, code: return F.dropout(input, self.p, self.training, self.inplace)
    dropout_19: "f16[1, 256, 5120]" = torch.ops.aten.dropout.default(mul_7, 0.0, False);  mul_7 = None
    
    # File: /home/newub/w/PersonaLive/.venv/lib/python3.10/site-packages/torch/nn/modules/linear.py:134 in forward, code: return F.linear(input, self.weight, self.bias)
    linear_56: "f16[1, 256, 1280]" = torch.ops.aten.linear.default(dropout_19, arg178_1, arg179_1);  dropout_19 = arg178_1 = arg179_1 = None
    
    # File: /home/newub/w/PersonaLive/src/models/transformer_2d.py:356 in forward, code: hidden_states = block(
    add_28: "f16[1, 256, 1280]" = torch.ops.aten.add.Tensor(linear_56, add_27);  linear_56 = add_27 = None
    
    # File: /home/newub/w/PersonaLive/src/models/transformer_2d.py:370 in forward, code: hidden_states.reshape(batch, height, width, inner_dim)
    reshape_24: "f16[1, 16, 16, 1280]" = torch.ops.aten.reshape.default(add_28, [1, 16, 16, 1280]);  add_28 = None
    
    # File: /home/newub/w/PersonaLive/src/models/transformer_2d.py:371 in forward, code: .permute(0, 3, 1, 2)
    permute_9: "f16[1, 1280, 16, 16]" = torch.ops.aten.permute.default(reshape_24, [0, 3, 1, 2]);  reshape_24 = None
    
    # File: /home/newub/w/PersonaLive/src/models/transformer_2d.py:372 in forward, code: .contiguous()
    contiguous_4: "f16[1, 1280, 16, 16]" = torch.ops.aten.contiguous.default(permute_9);  permute_9 = None
    
    # File: /home/newub/w/PersonaLive/.venv/lib/python3.10/site-packages/torch/nn/modules/conv.py:553 in forward, code: return self._conv_forward(input, self.weight, self.bias)
    conv2d_24: "f16[1, 1280, 16, 16]" = torch.ops.aten.conv2d.default(contiguous_4, arg180_1, arg181_1);  contiguous_4 = arg180_1 = arg181_1 = None
    
    # File: /home/newub/w/PersonaLive/src/models/transformer_2d.py:391 in forward, code: output = hidden_states + residual
    add_29: "f16[1, 1280, 16, 16]" = torch.ops.aten.add.Tensor(conv2d_24, div_13);  conv2d_24 = div_13 = None
    
    # File: /home/newub/w/PersonaLive/.venv/lib/python3.10/site-packages/torch/nn/modules/normalization.py:327 in forward, code: return F.group_norm(input, self.num_groups, self.weight, self.bias, self.eps)
    group_norm_15: "f16[1, 1280, 16, 16]" = torch.ops.aten.group_norm.default(add_29, 32, arg220_1, arg221_1, 1e-05, False);  arg220_1 = arg221_1 = None
    
    # File: /home/newub/w/PersonaLive/.venv/lib/python3.10/site-packages/torch/nn/modules/activation.py:475 in forward, code: return F.silu(input, inplace=self.inplace)
    silu_16: "f16[1, 1280, 16, 16]" = torch.ops.aten.silu.default(group_norm_15);  group_norm_15 = None
    
    # File: /home/newub/w/PersonaLive/.venv/lib/python3.10/site-packages/torch/nn/modules/conv.py:553 in forward, code: return self._conv_forward(input, self.weight, self.bias)
    conv2d_25: "f16[1, 1280, 16, 16]" = torch.ops.aten.conv2d.default(silu_16, arg222_1, arg223_1, [1, 1], [1, 1]);  silu_16 = arg222_1 = arg223_1 = None
    
    # File: /home/newub/w/PersonaLive/.venv/lib/python3.10/site-packages/torch/nn/modules/activation.py:475 in forward, code: return F.silu(input, inplace=self.inplace)
    silu_17: "f16[1, 1280]" = torch.ops.aten.silu.default(linear_1)
    
    # File: /home/newub/w/PersonaLive/.venv/lib/python3.10/site-packages/torch/nn/modules/linear.py:134 in forward, code: return F.linear(input, self.weight, self.bias)
    linear_57: "f16[1, 1280]" = torch.ops.aten.linear.default(silu_17, arg224_1, arg225_1);  silu_17 = arg224_1 = arg225_1 = None
    
    # File: /home/newub/w/PersonaLive/.venv/lib/python3.10/site-packages/diffusers/models/resnet.py:351 in forward, code: temb = self.time_emb_proj(temb)[:, :, None, None]
    unsqueeze_12: "f16[1, 1280, 1]" = torch.ops.aten.unsqueeze.default(linear_57, 2);  linear_57 = None
    unsqueeze_13: "f16[1, 1280, 1, 1]" = torch.ops.aten.unsqueeze.default(unsqueeze_12, 3);  unsqueeze_12 = None
    
    # File: /home/newub/w/PersonaLive/.venv/lib/python3.10/site-packages/diffusers/models/resnet.py:355 in forward, code: hidden_states = hidden_states + temb
    add_30: "f16[1, 1280, 16, 16]" = torch.ops.aten.add.Tensor(conv2d_25, unsqueeze_13);  conv2d_25 = unsqueeze_13 = None
    
    # File: /home/newub/w/PersonaLive/.venv/lib/python3.10/site-packages/torch/nn/modules/normalization.py:327 in forward, code: return F.group_norm(input, self.num_groups, self.weight, self.bias, self.eps)
    group_norm_16: "f16[1, 1280, 16, 16]" = torch.ops.aten.group_norm.default(add_30, 32, arg226_1, arg227_1, 1e-05, False);  add_30 = arg226_1 = arg227_1 = None
    
    # File: /home/newub/w/PersonaLive/.venv/lib/python3.10/site-packages/torch/nn/modules/activation.py:475 in forward, code: return F.silu(input, inplace=self.inplace)
    silu_18: "f16[1, 1280, 16, 16]" = torch.ops.aten.silu.default(group_norm_16);  group_norm_16 = None
    
    # File: /home/newub/w/PersonaLive/.venv/lib/python3.10/site-packages/torch/nn/modules/dropout.py:73 in forward, code: return F.dropout(input, self.p, self.training, self.inplace)
    dropout_20: "f16[1, 1280, 16, 16]" = torch.ops.aten.dropout.default(silu_18, 0.0, False);  silu_18 = None
    
    # File: /home/newub/w/PersonaLive/.venv/lib/python3.10/site-packages/torch/nn/modules/conv.py:553 in forward, code: return self._conv_forward(input, self.weight, self.bias)
    conv2d_26: "f16[1, 1280, 16, 16]" = torch.ops.aten.conv2d.default(dropout_20, arg228_1, arg229_1, [1, 1], [1, 1]);  dropout_20 = arg228_1 = arg229_1 = None
    
    # File: /home/newub/w/PersonaLive/.venv/lib/python3.10/site-packages/diffusers/models/resnet.py:376 in forward, code: output_tensor = (input_tensor + hidden_states) / self.output_scale_factor
    add_31: "f16[1, 1280, 16, 16]" = torch.ops.aten.add.Tensor(add_29, conv2d_26);  conv2d_26 = None
    div_16: "f16[1, 1280, 16, 16]" = torch.ops.aten.div.Tensor(add_31, 1.0);  add_31 = None
    
    # File: /home/newub/w/PersonaLive/.venv/lib/python3.10/site-packages/torch/nn/modules/normalization.py:327 in forward, code: return F.group_norm(input, self.num_groups, self.weight, self.bias, self.eps)
    group_norm_17: "f16[1, 1280, 16, 16]" = torch.ops.aten.group_norm.default(div_16, 32, arg182_1, arg183_1, 1e-06, False);  arg182_1 = arg183_1 = None
    
    # File: /home/newub/w/PersonaLive/.venv/lib/python3.10/site-packages/torch/nn/modules/conv.py:553 in forward, code: return self._conv_forward(input, self.weight, self.bias)
    conv2d_27: "f16[1, 1280, 16, 16]" = torch.ops.aten.conv2d.default(group_norm_17, arg184_1, arg185_1);  group_norm_17 = arg184_1 = arg185_1 = None
    
    # File: /home/newub/w/PersonaLive/src/models/transformer_2d.py:306 in forward, code: hidden_states = hidden_states.permute(0, 2, 3, 1).reshape(
    permute_10: "f16[1, 16, 16, 1280]" = torch.ops.aten.permute.default(conv2d_27, [0, 2, 3, 1]);  conv2d_27 = None
    reshape_25: "f16[1, 256, 1280]" = torch.ops.aten.reshape.default(permute_10, [1, 256, 1280]);  permute_10 = None
    
    # File: /home/newub/w/PersonaLive/src/models/transformer_2d.py:328 in forward, code: ref_feature = hidden_states.reshape(batch, height, width, inner_dim)
    reshape_26: "f16[1, 16, 16, 1280]" = torch.ops.aten.reshape.default(reshape_25, [1, 16, 16, 1280]);  reshape_26 = None
    
    # File: /home/newub/w/PersonaLive/.venv/lib/python3.10/site-packages/torch/nn/modules/normalization.py:229 in forward, code: return F.layer_norm(
    layer_norm_15: "f16[1, 256, 1280]" = torch.ops.aten.layer_norm.default(reshape_25, [1280], arg186_1, arg187_1, 1e-05, False);  arg186_1 = arg187_1 = None
    
    # File: /home/newub/w/PersonaLive/src/models/transformer_2d.py:356 in forward, code: hidden_states = block(
    clone_5: "f16[1, 256, 1280]" = torch.ops.aten.clone.default(layer_norm_15);  clone_5 = None
    
    # File: /home/newub/w/PersonaLive/.venv/lib/python3.10/site-packages/torch/nn/modules/linear.py:134 in forward, code: return F.linear(input, self.weight, self.bias)
    linear_58: "f16[1, 256, 1280]" = torch.ops.aten.linear.default(layer_norm_15, arg188_1);  arg188_1 = None
    linear_59: "f16[1, 256, 1280]" = torch.ops.aten.linear.default(layer_norm_15, arg189_1);  arg189_1 = None
    linear_60: "f16[1, 256, 1280]" = torch.ops.aten.linear.default(layer_norm_15, arg190_1);  layer_norm_15 = arg190_1 = None
    
    # File: /home/newub/w/PersonaLive/.venv/lib/python3.10/site-packages/diffusers/models/attention_processor.py:522 in forward, code: return self.processor(
    view_30: "f16[1, 256, 8, 160]" = torch.ops.aten.view.default(linear_58, [1, -1, 8, 160]);  linear_58 = None
    transpose_40: "f16[1, 8, 256, 160]" = torch.ops.aten.transpose.int(view_30, 1, 2);  view_30 = None
    view_31: "f16[1, 256, 8, 160]" = torch.ops.aten.view.default(linear_59, [1, -1, 8, 160]);  linear_59 = None
    transpose_41: "f16[1, 8, 256, 160]" = torch.ops.aten.transpose.int(view_31, 1, 2);  view_31 = None
    view_32: "f16[1, 256, 8, 160]" = torch.ops.aten.view.default(linear_60, [1, -1, 8, 160]);  linear_60 = None
    transpose_42: "f16[1, 8, 256, 160]" = torch.ops.aten.transpose.int(view_32, 1, 2);  view_32 = None
    scaled_dot_product_attention_10: "f16[1, 8, 256, 160]" = torch.ops.aten.scaled_dot_product_attention.default(transpose_40, transpose_41, transpose_42);  transpose_40 = transpose_41 = transpose_42 = None
    transpose_43: "f16[1, 256, 8, 160]" = torch.ops.aten.transpose.int(scaled_dot_product_attention_10, 1, 2);  scaled_dot_product_attention_10 = None
    reshape_27: "f16[1, 256, 1280]" = torch.ops.aten.reshape.default(transpose_43, [1, -1, 1280]);  transpose_43 = None
    to_12: "f16[1, 256, 1280]" = torch.ops.aten.to.dtype(reshape_27, torch.float16);  reshape_27 = None
    
    # File: /home/newub/w/PersonaLive/.venv/lib/python3.10/site-packages/torch/nn/modules/linear.py:134 in forward, code: return F.linear(input, self.weight, self.bias)
    linear_61: "f16[1, 256, 1280]" = torch.ops.aten.linear.default(to_12, arg191_1, arg192_1);  to_12 = arg191_1 = arg192_1 = None
    
    # File: /home/newub/w/PersonaLive/.venv/lib/python3.10/site-packages/torch/nn/modules/dropout.py:73 in forward, code: return F.dropout(input, self.p, self.training, self.inplace)
    dropout_21: "f16[1, 256, 1280]" = torch.ops.aten.dropout.default(linear_61, 0.0, False);  linear_61 = None
    
    # File: /home/newub/w/PersonaLive/.venv/lib/python3.10/site-packages/diffusers/models/attention_processor.py:522 in forward, code: return self.processor(
    div_17: "f16[1, 256, 1280]" = torch.ops.aten.div.Tensor(dropout_21, 1.0);  dropout_21 = None
    
    # File: /home/newub/w/PersonaLive/src/models/transformer_2d.py:356 in forward, code: hidden_states = block(
    add_32: "f16[1, 256, 1280]" = torch.ops.aten.add.Tensor(div_17, reshape_25);  div_17 = reshape_25 = None
    
    # File: /home/newub/w/PersonaLive/.venv/lib/python3.10/site-packages/torch/nn/modules/normalization.py:229 in forward, code: return F.layer_norm(
    layer_norm_16: "f16[1, 256, 1280]" = torch.ops.aten.layer_norm.default(add_32, [1280], arg193_1, arg194_1, 1e-05, False);  arg193_1 = arg194_1 = None
    
    # File: /home/newub/w/PersonaLive/.venv/lib/python3.10/site-packages/torch/nn/modules/linear.py:134 in forward, code: return F.linear(input, self.weight, self.bias)
    linear_62: "f16[1, 256, 1280]" = torch.ops.aten.linear.default(layer_norm_16, arg195_1);  layer_norm_16 = arg195_1 = None
    linear_63: "f16[1, 1, 1280]" = torch.ops.aten.linear.default(arg684_1, arg196_1);  arg196_1 = None
    linear_64: "f16[1, 1, 1280]" = torch.ops.aten.linear.default(arg684_1, arg197_1);  arg197_1 = None
    
    # File: /home/newub/w/PersonaLive/.venv/lib/python3.10/site-packages/diffusers/models/attention_processor.py:522 in forward, code: return self.processor(
    view_33: "f16[1, 256, 8, 160]" = torch.ops.aten.view.default(linear_62, [1, -1, 8, 160]);  linear_62 = None
    transpose_44: "f16[1, 8, 256, 160]" = torch.ops.aten.transpose.int(view_33, 1, 2);  view_33 = None
    view_34: "f16[1, 1, 8, 160]" = torch.ops.aten.view.default(linear_63, [1, -1, 8, 160]);  linear_63 = None
    transpose_45: "f16[1, 8, 1, 160]" = torch.ops.aten.transpose.int(view_34, 1, 2);  view_34 = None
    view_35: "f16[1, 1, 8, 160]" = torch.ops.aten.view.default(linear_64, [1, -1, 8, 160]);  linear_64 = None
    transpose_46: "f16[1, 8, 1, 160]" = torch.ops.aten.transpose.int(view_35, 1, 2);  view_35 = None
    scaled_dot_product_attention_11: "f16[1, 8, 256, 160]" = torch.ops.aten.scaled_dot_product_attention.default(transpose_44, transpose_45, transpose_46);  transpose_44 = transpose_45 = transpose_46 = None
    transpose_47: "f16[1, 256, 8, 160]" = torch.ops.aten.transpose.int(scaled_dot_product_attention_11, 1, 2);  scaled_dot_product_attention_11 = None
    reshape_28: "f16[1, 256, 1280]" = torch.ops.aten.reshape.default(transpose_47, [1, -1, 1280]);  transpose_47 = None
    to_13: "f16[1, 256, 1280]" = torch.ops.aten.to.dtype(reshape_28, torch.float16);  reshape_28 = None
    
    # File: /home/newub/w/PersonaLive/.venv/lib/python3.10/site-packages/torch/nn/modules/linear.py:134 in forward, code: return F.linear(input, self.weight, self.bias)
    linear_65: "f16[1, 256, 1280]" = torch.ops.aten.linear.default(to_13, arg198_1, arg199_1);  to_13 = arg198_1 = arg199_1 = None
    
    # File: /home/newub/w/PersonaLive/.venv/lib/python3.10/site-packages/torch/nn/modules/dropout.py:73 in forward, code: return F.dropout(input, self.p, self.training, self.inplace)
    dropout_22: "f16[1, 256, 1280]" = torch.ops.aten.dropout.default(linear_65, 0.0, False);  linear_65 = None
    
    # File: /home/newub/w/PersonaLive/.venv/lib/python3.10/site-packages/diffusers/models/attention_processor.py:522 in forward, code: return self.processor(
    div_18: "f16[1, 256, 1280]" = torch.ops.aten.div.Tensor(dropout_22, 1.0);  dropout_22 = None
    
    # File: /home/newub/w/PersonaLive/src/models/transformer_2d.py:356 in forward, code: hidden_states = block(
    add_33: "f16[1, 256, 1280]" = torch.ops.aten.add.Tensor(div_18, add_32);  div_18 = add_32 = None
    
    # File: /home/newub/w/PersonaLive/.venv/lib/python3.10/site-packages/torch/nn/modules/normalization.py:229 in forward, code: return F.layer_norm(
    layer_norm_17: "f16[1, 256, 1280]" = torch.ops.aten.layer_norm.default(add_33, [1280], arg200_1, arg201_1, 1e-05, False);  arg200_1 = arg201_1 = None
    
    # File: /home/newub/w/PersonaLive/.venv/lib/python3.10/site-packages/torch/nn/modules/linear.py:134 in forward, code: return F.linear(input, self.weight, self.bias)
    linear_66: "f16[1, 256, 10240]" = torch.ops.aten.linear.default(layer_norm_17, arg202_1, arg203_1);  layer_norm_17 = arg202_1 = arg203_1 = None
    
    # File: /home/newub/w/PersonaLive/.venv/lib/python3.10/site-packages/diffusers/models/activations.py:102 in forward, code: hidden_states, gate = self.proj(hidden_states).chunk(2, dim=-1)
    chunk_5 = torch.ops.aten.chunk.default(linear_66, 2, -1);  linear_66 = None
    getitem_10: "f16[1, 256, 5120]" = chunk_5[0]
    getitem_11: "f16[1, 256, 5120]" = chunk_5[1];  chunk_5 = None
    
    # File: /home/newub/w/PersonaLive/.venv/lib/python3.10/site-packages/diffusers/models/activations.py:103 in forward, code: return hidden_states * self.gelu(gate)
    gelu_5: "f16[1, 256, 5120]" = torch.ops.aten.gelu.default(getitem_11);  getitem_11 = None
    mul_8: "f16[1, 256, 5120]" = torch.ops.aten.mul.Tensor(getitem_10, gelu_5);  getitem_10 = gelu_5 = None
    
    # File: /home/newub/w/PersonaLive/.venv/lib/python3.10/site-packages/torch/nn/modules/dropout.py:73 in forward, code: return F.dropout(input, self.p, self.training, self.inplace)
    dropout_23: "f16[1, 256, 5120]" = torch.ops.aten.dropout.default(mul_8, 0.0, False);  mul_8 = None
    
    # File: /home/newub/w/PersonaLive/.venv/lib/python3.10/site-packages/torch/nn/modules/linear.py:134 in forward, code: return F.linear(input, self.weight, self.bias)
    linear_67: "f16[1, 256, 1280]" = torch.ops.aten.linear.default(dropout_23, arg204_1, arg205_1);  dropout_23 = arg204_1 = arg205_1 = None
    
    # File: /home/newub/w/PersonaLive/src/models/transformer_2d.py:356 in forward, code: hidden_states = block(
    add_34: "f16[1, 256, 1280]" = torch.ops.aten.add.Tensor(linear_67, add_33);  linear_67 = add_33 = None
    
    # File: /home/newub/w/PersonaLive/src/models/transformer_2d.py:370 in forward, code: hidden_states.reshape(batch, height, width, inner_dim)
    reshape_29: "f16[1, 16, 16, 1280]" = torch.ops.aten.reshape.default(add_34, [1, 16, 16, 1280]);  add_34 = None
    
    # File: /home/newub/w/PersonaLive/src/models/transformer_2d.py:371 in forward, code: .permute(0, 3, 1, 2)
    permute_11: "f16[1, 1280, 16, 16]" = torch.ops.aten.permute.default(reshape_29, [0, 3, 1, 2]);  reshape_29 = None
    
    # File: /home/newub/w/PersonaLive/src/models/transformer_2d.py:372 in forward, code: .contiguous()
    contiguous_5: "f16[1, 1280, 16, 16]" = torch.ops.aten.contiguous.default(permute_11);  permute_11 = None
    
    # File: /home/newub/w/PersonaLive/.venv/lib/python3.10/site-packages/torch/nn/modules/conv.py:553 in forward, code: return self._conv_forward(input, self.weight, self.bias)
    conv2d_28: "f16[1, 1280, 16, 16]" = torch.ops.aten.conv2d.default(contiguous_5, arg206_1, arg207_1);  contiguous_5 = arg206_1 = arg207_1 = None
    
    # File: /home/newub/w/PersonaLive/src/models/transformer_2d.py:391 in forward, code: output = hidden_states + residual
    add_35: "f16[1, 1280, 16, 16]" = torch.ops.aten.add.Tensor(conv2d_28, div_16);  conv2d_28 = div_16 = None
    
    # File: /home/newub/w/PersonaLive/.venv/lib/python3.10/site-packages/torch/nn/modules/conv.py:553 in forward, code: return self._conv_forward(input, self.weight, self.bias)
    conv2d_29: "f16[1, 1280, 8, 8]" = torch.ops.aten.conv2d.default(add_35, arg230_1, arg231_1, [2, 2], [1, 1]);  arg230_1 = arg231_1 = None
    
    # File: /home/newub/w/PersonaLive/.venv/lib/python3.10/site-packages/torch/nn/modules/normalization.py:327 in forward, code: return F.group_norm(input, self.num_groups, self.weight, self.bias, self.eps)
    group_norm_18: "f16[1, 1280, 8, 8]" = torch.ops.aten.group_norm.default(conv2d_29, 32, arg232_1, arg233_1, 1e-05, False);  arg232_1 = arg233_1 = None
    
    # File: /home/newub/w/PersonaLive/.venv/lib/python3.10/site-packages/torch/nn/modules/activation.py:475 in forward, code: return F.silu(input, inplace=self.inplace)
    silu_19: "f16[1, 1280, 8, 8]" = torch.ops.aten.silu.default(group_norm_18);  group_norm_18 = None
    
    # File: /home/newub/w/PersonaLive/.venv/lib/python3.10/site-packages/torch/nn/modules/conv.py:553 in forward, code: return self._conv_forward(input, self.weight, self.bias)
    conv2d_30: "f16[1, 1280, 8, 8]" = torch.ops.aten.conv2d.default(silu_19, arg234_1, arg235_1, [1, 1], [1, 1]);  silu_19 = arg234_1 = arg235_1 = None
    
    # File: /home/newub/w/PersonaLive/.venv/lib/python3.10/site-packages/torch/nn/modules/activation.py:475 in forward, code: return F.silu(input, inplace=self.inplace)
    silu_20: "f16[1, 1280]" = torch.ops.aten.silu.default(linear_1)
    
    # File: /home/newub/w/PersonaLive/.venv/lib/python3.10/site-packages/torch/nn/modules/linear.py:134 in forward, code: return F.linear(input, self.weight, self.bias)
    linear_68: "f16[1, 1280]" = torch.ops.aten.linear.default(silu_20, arg236_1, arg237_1);  silu_20 = arg236_1 = arg237_1 = None
    
    # File: /home/newub/w/PersonaLive/.venv/lib/python3.10/site-packages/diffusers/models/resnet.py:351 in forward, code: temb = self.time_emb_proj(temb)[:, :, None, None]
    unsqueeze_14: "f16[1, 1280, 1]" = torch.ops.aten.unsqueeze.default(linear_68, 2);  linear_68 = None
    unsqueeze_15: "f16[1, 1280, 1, 1]" = torch.ops.aten.unsqueeze.default(unsqueeze_14, 3);  unsqueeze_14 = None
    
    # File: /home/newub/w/PersonaLive/.venv/lib/python3.10/site-packages/diffusers/models/resnet.py:355 in forward, code: hidden_states = hidden_states + temb
    add_36: "f16[1, 1280, 8, 8]" = torch.ops.aten.add.Tensor(conv2d_30, unsqueeze_15);  conv2d_30 = unsqueeze_15 = None
    
    # File: /home/newub/w/PersonaLive/.venv/lib/python3.10/site-packages/torch/nn/modules/normalization.py:327 in forward, code: return F.group_norm(input, self.num_groups, self.weight, self.bias, self.eps)
    group_norm_19: "f16[1, 1280, 8, 8]" = torch.ops.aten.group_norm.default(add_36, 32, arg238_1, arg239_1, 1e-05, False);  add_36 = arg238_1 = arg239_1 = None
    
    # File: /home/newub/w/PersonaLive/.venv/lib/python3.10/site-packages/torch/nn/modules/activation.py:475 in forward, code: return F.silu(input, inplace=self.inplace)
    silu_21: "f16[1, 1280, 8, 8]" = torch.ops.aten.silu.default(group_norm_19);  group_norm_19 = None
    
    # File: /home/newub/w/PersonaLive/.venv/lib/python3.10/site-packages/torch/nn/modules/dropout.py:73 in forward, code: return F.dropout(input, self.p, self.training, self.inplace)
    dropout_24: "f16[1, 1280, 8, 8]" = torch.ops.aten.dropout.default(silu_21, 0.0, False);  silu_21 = None
    
    # File: /home/newub/w/PersonaLive/.venv/lib/python3.10/site-packages/torch/nn/modules/conv.py:553 in forward, code: return self._conv_forward(input, self.weight, self.bias)
    conv2d_31: "f16[1, 1280, 8, 8]" = torch.ops.aten.conv2d.default(dropout_24, arg240_1, arg241_1, [1, 1], [1, 1]);  dropout_24 = arg240_1 = arg241_1 = None
    
    # File: /home/newub/w/PersonaLive/.venv/lib/python3.10/site-packages/diffusers/models/resnet.py:376 in forward, code: output_tensor = (input_tensor + hidden_states) / self.output_scale_factor
    add_37: "f16[1, 1280, 8, 8]" = torch.ops.aten.add.Tensor(conv2d_29, conv2d_31);  conv2d_31 = None
    div_19: "f16[1, 1280, 8, 8]" = torch.ops.aten.div.Tensor(add_37, 1.0);  add_37 = None
    
    # File: /home/newub/w/PersonaLive/.venv/lib/python3.10/site-packages/torch/nn/modules/normalization.py:327 in forward, code: return F.group_norm(input, self.num_groups, self.weight, self.bias, self.eps)
    group_norm_20: "f16[1, 1280, 8, 8]" = torch.ops.aten.group_norm.default(div_19, 32, arg242_1, arg243_1, 1e-05, False);  arg242_1 = arg243_1 = None
    
    # File: /home/newub/w/PersonaLive/.venv/lib/python3.10/site-packages/torch/nn/modules/activation.py:475 in forward, code: return F.silu(input, inplace=self.inplace)
    silu_22: "f16[1, 1280, 8, 8]" = torch.ops.aten.silu.default(group_norm_20);  group_norm_20 = None
    
    # File: /home/newub/w/PersonaLive/.venv/lib/python3.10/site-packages/torch/nn/modules/conv.py:553 in forward, code: return self._conv_forward(input, self.weight, self.bias)
    conv2d_32: "f16[1, 1280, 8, 8]" = torch.ops.aten.conv2d.default(silu_22, arg244_1, arg245_1, [1, 1], [1, 1]);  silu_22 = arg244_1 = arg245_1 = None
    
    # File: /home/newub/w/PersonaLive/.venv/lib/python3.10/site-packages/torch/nn/modules/activation.py:475 in forward, code: return F.silu(input, inplace=self.inplace)
    silu_23: "f16[1, 1280]" = torch.ops.aten.silu.default(linear_1)
    
    # File: /home/newub/w/PersonaLive/.venv/lib/python3.10/site-packages/torch/nn/modules/linear.py:134 in forward, code: return F.linear(input, self.weight, self.bias)
    linear_69: "f16[1, 1280]" = torch.ops.aten.linear.default(silu_23, arg246_1, arg247_1);  silu_23 = arg246_1 = arg247_1 = None
    
    # File: /home/newub/w/PersonaLive/.venv/lib/python3.10/site-packages/diffusers/models/resnet.py:351 in forward, code: temb = self.time_emb_proj(temb)[:, :, None, None]
    unsqueeze_16: "f16[1, 1280, 1]" = torch.ops.aten.unsqueeze.default(linear_69, 2);  linear_69 = None
    unsqueeze_17: "f16[1, 1280, 1, 1]" = torch.ops.aten.unsqueeze.default(unsqueeze_16, 3);  unsqueeze_16 = None
    
    # File: /home/newub/w/PersonaLive/.venv/lib/python3.10/site-packages/diffusers/models/resnet.py:355 in forward, code: hidden_states = hidden_states + temb
    add_38: "f16[1, 1280, 8, 8]" = torch.ops.aten.add.Tensor(conv2d_32, unsqueeze_17);  conv2d_32 = unsqueeze_17 = None
    
    # File: /home/newub/w/PersonaLive/.venv/lib/python3.10/site-packages/torch/nn/modules/normalization.py:327 in forward, code: return F.group_norm(input, self.num_groups, self.weight, self.bias, self.eps)
    group_norm_21: "f16[1, 1280, 8, 8]" = torch.ops.aten.group_norm.default(add_38, 32, arg248_1, arg249_1, 1e-05, False);  add_38 = arg248_1 = arg249_1 = None
    
    # File: /home/newub/w/PersonaLive/.venv/lib/python3.10/site-packages/torch/nn/modules/activation.py:475 in forward, code: return F.silu(input, inplace=self.inplace)
    silu_24: "f16[1, 1280, 8, 8]" = torch.ops.aten.silu.default(group_norm_21);  group_norm_21 = None
    
    # File: /home/newub/w/PersonaLive/.venv/lib/python3.10/site-packages/torch/nn/modules/dropout.py:73 in forward, code: return F.dropout(input, self.p, self.training, self.inplace)
    dropout_25: "f16[1, 1280, 8, 8]" = torch.ops.aten.dropout.default(silu_24, 0.0, False);  silu_24 = None
    
    # File: /home/newub/w/PersonaLive/.venv/lib/python3.10/site-packages/torch/nn/modules/conv.py:553 in forward, code: return self._conv_forward(input, self.weight, self.bias)
    conv2d_33: "f16[1, 1280, 8, 8]" = torch.ops.aten.conv2d.default(dropout_25, arg250_1, arg251_1, [1, 1], [1, 1]);  dropout_25 = arg250_1 = arg251_1 = None
    
    # File: /home/newub/w/PersonaLive/.venv/lib/python3.10/site-packages/diffusers/models/resnet.py:376 in forward, code: output_tensor = (input_tensor + hidden_states) / self.output_scale_factor
    add_39: "f16[1, 1280, 8, 8]" = torch.ops.aten.add.Tensor(div_19, conv2d_33);  conv2d_33 = None
    div_20: "f16[1, 1280, 8, 8]" = torch.ops.aten.div.Tensor(add_39, 1.0);  add_39 = None
    
    # File: /home/newub/w/PersonaLive/.venv/lib/python3.10/site-packages/torch/nn/modules/normalization.py:327 in forward, code: return F.group_norm(input, self.num_groups, self.weight, self.bias, self.eps)
    group_norm_22: "f16[1, 1280, 8, 8]" = torch.ops.aten.group_norm.default(div_20, 32, arg662_1, arg663_1, 1e-05, False);  arg662_1 = arg663_1 = None
    
    # File: /home/newub/w/PersonaLive/.venv/lib/python3.10/site-packages/torch/nn/modules/activation.py:475 in forward, code: return F.silu(input, inplace=self.inplace)
    silu_25: "f16[1, 1280, 8, 8]" = torch.ops.aten.silu.default(group_norm_22);  group_norm_22 = None
    
    # File: /home/newub/w/PersonaLive/.venv/lib/python3.10/site-packages/torch/nn/modules/conv.py:553 in forward, code: return self._conv_forward(input, self.weight, self.bias)
    conv2d_34: "f16[1, 1280, 8, 8]" = torch.ops.aten.conv2d.default(silu_25, arg664_1, arg665_1, [1, 1], [1, 1]);  silu_25 = arg664_1 = arg665_1 = None
    
    # File: /home/newub/w/PersonaLive/.venv/lib/python3.10/site-packages/torch/nn/modules/activation.py:475 in forward, code: return F.silu(input, inplace=self.inplace)
    silu_26: "f16[1, 1280]" = torch.ops.aten.silu.default(linear_1)
    
    # File: /home/newub/w/PersonaLive/.venv/lib/python3.10/site-packages/torch/nn/modules/linear.py:134 in forward, code: return F.linear(input, self.weight, self.bias)
    linear_70: "f16[1, 1280]" = torch.ops.aten.linear.default(silu_26, arg666_1, arg667_1);  silu_26 = arg666_1 = arg667_1 = None
    
    # File: /home/newub/w/PersonaLive/.venv/lib/python3.10/site-packages/diffusers/models/resnet.py:351 in forward, code: temb = self.time_emb_proj(temb)[:, :, None, None]
    unsqueeze_18: "f16[1, 1280, 1]" = torch.ops.aten.unsqueeze.default(linear_70, 2);  linear_70 = None
    unsqueeze_19: "f16[1, 1280, 1, 1]" = torch.ops.aten.unsqueeze.default(unsqueeze_18, 3);  unsqueeze_18 = None
    
    # File: /home/newub/w/PersonaLive/.venv/lib/python3.10/site-packages/diffusers/models/resnet.py:355 in forward, code: hidden_states = hidden_states + temb
    add_40: "f16[1, 1280, 8, 8]" = torch.ops.aten.add.Tensor(conv2d_34, unsqueeze_19);  conv2d_34 = unsqueeze_19 = None
    
    # File: /home/newub/w/PersonaLive/.venv/lib/python3.10/site-packages/torch/nn/modules/normalization.py:327 in forward, code: return F.group_norm(input, self.num_groups, self.weight, self.bias, self.eps)
    group_norm_23: "f16[1, 1280, 8, 8]" = torch.ops.aten.group_norm.default(add_40, 32, arg668_1, arg669_1, 1e-05, False);  add_40 = arg668_1 = arg669_1 = None
    
    # File: /home/newub/w/PersonaLive/.venv/lib/python3.10/site-packages/torch/nn/modules/activation.py:475 in forward, code: return F.silu(input, inplace=self.inplace)
    silu_27: "f16[1, 1280, 8, 8]" = torch.ops.aten.silu.default(group_norm_23);  group_norm_23 = None
    
    # File: /home/newub/w/PersonaLive/.venv/lib/python3.10/site-packages/torch/nn/modules/dropout.py:73 in forward, code: return F.dropout(input, self.p, self.training, self.inplace)
    dropout_26: "f16[1, 1280, 8, 8]" = torch.ops.aten.dropout.default(silu_27, 0.0, False);  silu_27 = None
    
    # File: /home/newub/w/PersonaLive/.venv/lib/python3.10/site-packages/torch/nn/modules/conv.py:553 in forward, code: return self._conv_forward(input, self.weight, self.bias)
    conv2d_35: "f16[1, 1280, 8, 8]" = torch.ops.aten.conv2d.default(dropout_26, arg670_1, arg671_1, [1, 1], [1, 1]);  dropout_26 = arg670_1 = arg671_1 = None
    
    # File: /home/newub/w/PersonaLive/.venv/lib/python3.10/site-packages/diffusers/models/resnet.py:376 in forward, code: output_tensor = (input_tensor + hidden_states) / self.output_scale_factor
    add_41: "f16[1, 1280, 8, 8]" = torch.ops.aten.add.Tensor(div_20, conv2d_35);  conv2d_35 = None
    div_21: "f16[1, 1280, 8, 8]" = torch.ops.aten.div.Tensor(add_41, 1);  add_41 = None
    
    # File: /home/newub/w/PersonaLive/.venv/lib/python3.10/site-packages/torch/nn/modules/normalization.py:327 in forward, code: return F.group_norm(input, self.num_groups, self.weight, self.bias, self.eps)
    group_norm_24: "f16[1, 1280, 8, 8]" = torch.ops.aten.group_norm.default(div_21, 32, arg636_1, arg637_1, 1e-06, False);  arg636_1 = arg637_1 = None
    
    # File: /home/newub/w/PersonaLive/.venv/lib/python3.10/site-packages/torch/nn/modules/conv.py:553 in forward, code: return self._conv_forward(input, self.weight, self.bias)
    conv2d_36: "f16[1, 1280, 8, 8]" = torch.ops.aten.conv2d.default(group_norm_24, arg638_1, arg639_1);  group_norm_24 = arg638_1 = arg639_1 = None
    
    # File: /home/newub/w/PersonaLive/src/models/transformer_2d.py:306 in forward, code: hidden_states = hidden_states.permute(0, 2, 3, 1).reshape(
    permute_12: "f16[1, 8, 8, 1280]" = torch.ops.aten.permute.default(conv2d_36, [0, 2, 3, 1]);  conv2d_36 = None
    reshape_30: "f16[1, 64, 1280]" = torch.ops.aten.reshape.default(permute_12, [1, 64, 1280]);  permute_12 = None
    
    # File: /home/newub/w/PersonaLive/src/models/transformer_2d.py:328 in forward, code: ref_feature = hidden_states.reshape(batch, height, width, inner_dim)
    reshape_31: "f16[1, 8, 8, 1280]" = torch.ops.aten.reshape.default(reshape_30, [1, 8, 8, 1280]);  reshape_31 = None
    
    # File: /home/newub/w/PersonaLive/.venv/lib/python3.10/site-packages/torch/nn/modules/normalization.py:229 in forward, code: return F.layer_norm(
    layer_norm_18: "f16[1, 64, 1280]" = torch.ops.aten.layer_norm.default(reshape_30, [1280], arg640_1, arg641_1, 1e-05, False);  arg640_1 = arg641_1 = None
    
    # File: /home/newub/w/PersonaLive/src/models/transformer_2d.py:356 in forward, code: hidden_states = block(
    clone_6: "f16[1, 64, 1280]" = torch.ops.aten.clone.default(layer_norm_18);  clone_6 = None
    
    # File: /home/newub/w/PersonaLive/.venv/lib/python3.10/site-packages/torch/nn/modules/linear.py:134 in forward, code: return F.linear(input, self.weight, self.bias)
    linear_71: "f16[1, 64, 1280]" = torch.ops.aten.linear.default(layer_norm_18, arg642_1);  arg642_1 = None
    linear_72: "f16[1, 64, 1280]" = torch.ops.aten.linear.default(layer_norm_18, arg643_1);  arg643_1 = None
    linear_73: "f16[1, 64, 1280]" = torch.ops.aten.linear.default(layer_norm_18, arg644_1);  layer_norm_18 = arg644_1 = None
    
    # File: /home/newub/w/PersonaLive/.venv/lib/python3.10/site-packages/diffusers/models/attention_processor.py:522 in forward, code: return self.processor(
    view_36: "f16[1, 64, 8, 160]" = torch.ops.aten.view.default(linear_71, [1, -1, 8, 160]);  linear_71 = None
    transpose_48: "f16[1, 8, 64, 160]" = torch.ops.aten.transpose.int(view_36, 1, 2);  view_36 = None
    view_37: "f16[1, 64, 8, 160]" = torch.ops.aten.view.default(linear_72, [1, -1, 8, 160]);  linear_72 = None
    transpose_49: "f16[1, 8, 64, 160]" = torch.ops.aten.transpose.int(view_37, 1, 2);  view_37 = None
    view_38: "f16[1, 64, 8, 160]" = torch.ops.aten.view.default(linear_73, [1, -1, 8, 160]);  linear_73 = None
    transpose_50: "f16[1, 8, 64, 160]" = torch.ops.aten.transpose.int(view_38, 1, 2);  view_38 = None
    scaled_dot_product_attention_12: "f16[1, 8, 64, 160]" = torch.ops.aten.scaled_dot_product_attention.default(transpose_48, transpose_49, transpose_50);  transpose_48 = transpose_49 = transpose_50 = None
    transpose_51: "f16[1, 64, 8, 160]" = torch.ops.aten.transpose.int(scaled_dot_product_attention_12, 1, 2);  scaled_dot_product_attention_12 = None
    reshape_32: "f16[1, 64, 1280]" = torch.ops.aten.reshape.default(transpose_51, [1, -1, 1280]);  transpose_51 = None
    to_14: "f16[1, 64, 1280]" = torch.ops.aten.to.dtype(reshape_32, torch.float16);  reshape_32 = None
    
    # File: /home/newub/w/PersonaLive/.venv/lib/python3.10/site-packages/torch/nn/modules/linear.py:134 in forward, code: return F.linear(input, self.weight, self.bias)
    linear_74: "f16[1, 64, 1280]" = torch.ops.aten.linear.default(to_14, arg645_1, arg646_1);  to_14 = arg645_1 = arg646_1 = None
    
    # File: /home/newub/w/PersonaLive/.venv/lib/python3.10/site-packages/torch/nn/modules/dropout.py:73 in forward, code: return F.dropout(input, self.p, self.training, self.inplace)
    dropout_27: "f16[1, 64, 1280]" = torch.ops.aten.dropout.default(linear_74, 0.0, False);  linear_74 = None
    
    # File: /home/newub/w/PersonaLive/.venv/lib/python3.10/site-packages/diffusers/models/attention_processor.py:522 in forward, code: return self.processor(
    div_22: "f16[1, 64, 1280]" = torch.ops.aten.div.Tensor(dropout_27, 1.0);  dropout_27 = None
    
    # File: /home/newub/w/PersonaLive/src/models/transformer_2d.py:356 in forward, code: hidden_states = block(
    add_42: "f16[1, 64, 1280]" = torch.ops.aten.add.Tensor(div_22, reshape_30);  div_22 = reshape_30 = None
    
    # File: /home/newub/w/PersonaLive/.venv/lib/python3.10/site-packages/torch/nn/modules/normalization.py:229 in forward, code: return F.layer_norm(
    layer_norm_19: "f16[1, 64, 1280]" = torch.ops.aten.layer_norm.default(add_42, [1280], arg647_1, arg648_1, 1e-05, False);  arg647_1 = arg648_1 = None
    
    # File: /home/newub/w/PersonaLive/.venv/lib/python3.10/site-packages/torch/nn/modules/linear.py:134 in forward, code: return F.linear(input, self.weight, self.bias)
    linear_75: "f16[1, 64, 1280]" = torch.ops.aten.linear.default(layer_norm_19, arg649_1);  layer_norm_19 = arg649_1 = None
    linear_76: "f16[1, 1, 1280]" = torch.ops.aten.linear.default(arg684_1, arg650_1);  arg650_1 = None
    linear_77: "f16[1, 1, 1280]" = torch.ops.aten.linear.default(arg684_1, arg651_1);  arg651_1 = None
    
    # File: /home/newub/w/PersonaLive/.venv/lib/python3.10/site-packages/diffusers/models/attention_processor.py:522 in forward, code: return self.processor(
    view_39: "f16[1, 64, 8, 160]" = torch.ops.aten.view.default(linear_75, [1, -1, 8, 160]);  linear_75 = None
    transpose_52: "f16[1, 8, 64, 160]" = torch.ops.aten.transpose.int(view_39, 1, 2);  view_39 = None
    view_40: "f16[1, 1, 8, 160]" = torch.ops.aten.view.default(linear_76, [1, -1, 8, 160]);  linear_76 = None
    transpose_53: "f16[1, 8, 1, 160]" = torch.ops.aten.transpose.int(view_40, 1, 2);  view_40 = None
    view_41: "f16[1, 1, 8, 160]" = torch.ops.aten.view.default(linear_77, [1, -1, 8, 160]);  linear_77 = None
    transpose_54: "f16[1, 8, 1, 160]" = torch.ops.aten.transpose.int(view_41, 1, 2);  view_41 = None
    scaled_dot_product_attention_13: "f16[1, 8, 64, 160]" = torch.ops.aten.scaled_dot_product_attention.default(transpose_52, transpose_53, transpose_54);  transpose_52 = transpose_53 = transpose_54 = None
    transpose_55: "f16[1, 64, 8, 160]" = torch.ops.aten.transpose.int(scaled_dot_product_attention_13, 1, 2);  scaled_dot_product_attention_13 = None
    reshape_33: "f16[1, 64, 1280]" = torch.ops.aten.reshape.default(transpose_55, [1, -1, 1280]);  transpose_55 = None
    to_15: "f16[1, 64, 1280]" = torch.ops.aten.to.dtype(reshape_33, torch.float16);  reshape_33 = None
    
    # File: /home/newub/w/PersonaLive/.venv/lib/python3.10/site-packages/torch/nn/modules/linear.py:134 in forward, code: return F.linear(input, self.weight, self.bias)
    linear_78: "f16[1, 64, 1280]" = torch.ops.aten.linear.default(to_15, arg652_1, arg653_1);  to_15 = arg652_1 = arg653_1 = None
    
    # File: /home/newub/w/PersonaLive/.venv/lib/python3.10/site-packages/torch/nn/modules/dropout.py:73 in forward, code: return F.dropout(input, self.p, self.training, self.inplace)
    dropout_28: "f16[1, 64, 1280]" = torch.ops.aten.dropout.default(linear_78, 0.0, False);  linear_78 = None
    
    # File: /home/newub/w/PersonaLive/.venv/lib/python3.10/site-packages/diffusers/models/attention_processor.py:522 in forward, code: return self.processor(
    div_23: "f16[1, 64, 1280]" = torch.ops.aten.div.Tensor(dropout_28, 1.0);  dropout_28 = None
    
    # File: /home/newub/w/PersonaLive/src/models/transformer_2d.py:356 in forward, code: hidden_states = block(
    add_43: "f16[1, 64, 1280]" = torch.ops.aten.add.Tensor(div_23, add_42);  div_23 = add_42 = None
    
    # File: /home/newub/w/PersonaLive/.venv/lib/python3.10/site-packages/torch/nn/modules/normalization.py:229 in forward, code: return F.layer_norm(
    layer_norm_20: "f16[1, 64, 1280]" = torch.ops.aten.layer_norm.default(add_43, [1280], arg654_1, arg655_1, 1e-05, False);  arg654_1 = arg655_1 = None
    
    # File: /home/newub/w/PersonaLive/.venv/lib/python3.10/site-packages/torch/nn/modules/linear.py:134 in forward, code: return F.linear(input, self.weight, self.bias)
    linear_79: "f16[1, 64, 10240]" = torch.ops.aten.linear.default(layer_norm_20, arg656_1, arg657_1);  layer_norm_20 = arg656_1 = arg657_1 = None
    
    # File: /home/newub/w/PersonaLive/.venv/lib/python3.10/site-packages/diffusers/models/activations.py:102 in forward, code: hidden_states, gate = self.proj(hidden_states).chunk(2, dim=-1)
    chunk_6 = torch.ops.aten.chunk.default(linear_79, 2, -1);  linear_79 = None
    getitem_12: "f16[1, 64, 5120]" = chunk_6[0]
    getitem_13: "f16[1, 64, 5120]" = chunk_6[1];  chunk_6 = None
    
    # File: /home/newub/w/PersonaLive/.venv/lib/python3.10/site-packages/diffusers/models/activations.py:103 in forward, code: return hidden_states * self.gelu(gate)
    gelu_6: "f16[1, 64, 5120]" = torch.ops.aten.gelu.default(getitem_13);  getitem_13 = None
    mul_9: "f16[1, 64, 5120]" = torch.ops.aten.mul.Tensor(getitem_12, gelu_6);  getitem_12 = gelu_6 = None
    
    # File: /home/newub/w/PersonaLive/.venv/lib/python3.10/site-packages/torch/nn/modules/dropout.py:73 in forward, code: return F.dropout(input, self.p, self.training, self.inplace)
    dropout_29: "f16[1, 64, 5120]" = torch.ops.aten.dropout.default(mul_9, 0.0, False);  mul_9 = None
    
    # File: /home/newub/w/PersonaLive/.venv/lib/python3.10/site-packages/torch/nn/modules/linear.py:134 in forward, code: return F.linear(input, self.weight, self.bias)
    linear_80: "f16[1, 64, 1280]" = torch.ops.aten.linear.default(dropout_29, arg658_1, arg659_1);  dropout_29 = arg658_1 = arg659_1 = None
    
    # File: /home/newub/w/PersonaLive/src/models/transformer_2d.py:356 in forward, code: hidden_states = block(
    add_44: "f16[1, 64, 1280]" = torch.ops.aten.add.Tensor(linear_80, add_43);  linear_80 = add_43 = None
    
    # File: /home/newub/w/PersonaLive/src/models/transformer_2d.py:370 in forward, code: hidden_states.reshape(batch, height, width, inner_dim)
    reshape_34: "f16[1, 8, 8, 1280]" = torch.ops.aten.reshape.default(add_44, [1, 8, 8, 1280]);  add_44 = None
    
    # File: /home/newub/w/PersonaLive/src/models/transformer_2d.py:371 in forward, code: .permute(0, 3, 1, 2)
    permute_13: "f16[1, 1280, 8, 8]" = torch.ops.aten.permute.default(reshape_34, [0, 3, 1, 2]);  reshape_34 = None
    
    # File: /home/newub/w/PersonaLive/src/models/transformer_2d.py:372 in forward, code: .contiguous()
    contiguous_6: "f16[1, 1280, 8, 8]" = torch.ops.aten.contiguous.default(permute_13);  permute_13 = None
    
    # File: /home/newub/w/PersonaLive/.venv/lib/python3.10/site-packages/torch/nn/modules/conv.py:553 in forward, code: return self._conv_forward(input, self.weight, self.bias)
    conv2d_37: "f16[1, 1280, 8, 8]" = torch.ops.aten.conv2d.default(contiguous_6, arg660_1, arg661_1);  contiguous_6 = arg660_1 = arg661_1 = None
    
    # File: /home/newub/w/PersonaLive/src/models/transformer_2d.py:391 in forward, code: output = hidden_states + residual
    add_45: "f16[1, 1280, 8, 8]" = torch.ops.aten.add.Tensor(conv2d_37, div_21);  conv2d_37 = div_21 = None
    
    # File: /home/newub/w/PersonaLive/.venv/lib/python3.10/site-packages/torch/nn/modules/normalization.py:327 in forward, code: return F.group_norm(input, self.num_groups, self.weight, self.bias, self.eps)
    group_norm_25: "f16[1, 1280, 8, 8]" = torch.ops.aten.group_norm.default(add_45, 32, arg672_1, arg673_1, 1e-05, False);  arg672_1 = arg673_1 = None
    
    # File: /home/newub/w/PersonaLive/.venv/lib/python3.10/site-packages/torch/nn/modules/activation.py:475 in forward, code: return F.silu(input, inplace=self.inplace)
    silu_28: "f16[1, 1280, 8, 8]" = torch.ops.aten.silu.default(group_norm_25);  group_norm_25 = None
    
    # File: /home/newub/w/PersonaLive/.venv/lib/python3.10/site-packages/torch/nn/modules/conv.py:553 in forward, code: return self._conv_forward(input, self.weight, self.bias)
    conv2d_38: "f16[1, 1280, 8, 8]" = torch.ops.aten.conv2d.default(silu_28, arg674_1, arg675_1, [1, 1], [1, 1]);  silu_28 = arg674_1 = arg675_1 = None
    
    # File: /home/newub/w/PersonaLive/.venv/lib/python3.10/site-packages/torch/nn/modules/activation.py:475 in forward, code: return F.silu(input, inplace=self.inplace)
    silu_29: "f16[1, 1280]" = torch.ops.aten.silu.default(linear_1)
    
    # File: /home/newub/w/PersonaLive/.venv/lib/python3.10/site-packages/torch/nn/modules/linear.py:134 in forward, code: return F.linear(input, self.weight, self.bias)
    linear_81: "f16[1, 1280]" = torch.ops.aten.linear.default(silu_29, arg676_1, arg677_1);  silu_29 = arg676_1 = arg677_1 = None
    
    # File: /home/newub/w/PersonaLive/.venv/lib/python3.10/site-packages/diffusers/models/resnet.py:351 in forward, code: temb = self.time_emb_proj(temb)[:, :, None, None]
    unsqueeze_20: "f16[1, 1280, 1]" = torch.ops.aten.unsqueeze.default(linear_81, 2);  linear_81 = None
    unsqueeze_21: "f16[1, 1280, 1, 1]" = torch.ops.aten.unsqueeze.default(unsqueeze_20, 3);  unsqueeze_20 = None
    
    # File: /home/newub/w/PersonaLive/.venv/lib/python3.10/site-packages/diffusers/models/resnet.py:355 in forward, code: hidden_states = hidden_states + temb
    add_46: "f16[1, 1280, 8, 8]" = torch.ops.aten.add.Tensor(conv2d_38, unsqueeze_21);  conv2d_38 = unsqueeze_21 = None
    
    # File: /home/newub/w/PersonaLive/.venv/lib/python3.10/site-packages/torch/nn/modules/normalization.py:327 in forward, code: return F.group_norm(input, self.num_groups, self.weight, self.bias, self.eps)
    group_norm_26: "f16[1, 1280, 8, 8]" = torch.ops.aten.group_norm.default(add_46, 32, arg678_1, arg679_1, 1e-05, False);  add_46 = arg678_1 = arg679_1 = None
    
    # File: /home/newub/w/PersonaLive/.venv/lib/python3.10/site-packages/torch/nn/modules/activation.py:475 in forward, code: return F.silu(input, inplace=self.inplace)
    silu_30: "f16[1, 1280, 8, 8]" = torch.ops.aten.silu.default(group_norm_26);  group_norm_26 = None
    
    # File: /home/newub/w/PersonaLive/.venv/lib/python3.10/site-packages/torch/nn/modules/dropout.py:73 in forward, code: return F.dropout(input, self.p, self.training, self.inplace)
    dropout_30: "f16[1, 1280, 8, 8]" = torch.ops.aten.dropout.default(silu_30, 0.0, False);  silu_30 = None
    
    # File: /home/newub/w/PersonaLive/.venv/lib/python3.10/site-packages/torch/nn/modules/conv.py:553 in forward, code: return self._conv_forward(input, self.weight, self.bias)
    conv2d_39: "f16[1, 1280, 8, 8]" = torch.ops.aten.conv2d.default(dropout_30, arg680_1, arg681_1, [1, 1], [1, 1]);  dropout_30 = arg680_1 = arg681_1 = None
    
    # File: /home/newub/w/PersonaLive/.venv/lib/python3.10/site-packages/diffusers/models/resnet.py:376 in forward, code: output_tensor = (input_tensor + hidden_states) / self.output_scale_factor
    add_47: "f16[1, 1280, 8, 8]" = torch.ops.aten.add.Tensor(add_45, conv2d_39);  add_45 = conv2d_39 = None
    div_24: "f16[1, 1280, 8, 8]" = torch.ops.aten.div.Tensor(add_47, 1);  add_47 = None
    
    # File: /home/newub/w/PersonaLive/src/models/unet_2d_blocks.py:1045 in forward, code: hidden_states = torch.cat([hidden_states, res_hidden_states], dim=1)
    cat_2: "f16[1, 2560, 8, 8]" = torch.ops.aten.cat.default([div_24, div_20], 1);  div_24 = div_20 = None
    
    # File: /home/newub/w/PersonaLive/.venv/lib/python3.10/site-packages/torch/nn/modules/normalization.py:327 in forward, code: return F.group_norm(input, self.num_groups, self.weight, self.bias, self.eps)
    group_norm_27: "f16[1, 2560, 8, 8]" = torch.ops.aten.group_norm.default(cat_2, 32, arg252_1, arg253_1, 1e-05, False);  arg252_1 = arg253_1 = None
    
    # File: /home/newub/w/PersonaLive/.venv/lib/python3.10/site-packages/torch/nn/modules/activation.py:475 in forward, code: return F.silu(input, inplace=self.inplace)
    silu_31: "f16[1, 2560, 8, 8]" = torch.ops.aten.silu.default(group_norm_27);  group_norm_27 = None
    
    # File: /home/newub/w/PersonaLive/.venv/lib/python3.10/site-packages/torch/nn/modules/conv.py:553 in forward, code: return self._conv_forward(input, self.weight, self.bias)
    conv2d_40: "f16[1, 1280, 8, 8]" = torch.ops.aten.conv2d.default(silu_31, arg254_1, arg255_1, [1, 1], [1, 1]);  silu_31 = arg254_1 = arg255_1 = None
    
    # File: /home/newub/w/PersonaLive/.venv/lib/python3.10/site-packages/torch/nn/modules/activation.py:475 in forward, code: return F.silu(input, inplace=self.inplace)
    silu_32: "f16[1, 1280]" = torch.ops.aten.silu.default(linear_1)
    
    # File: /home/newub/w/PersonaLive/.venv/lib/python3.10/site-packages/torch/nn/modules/linear.py:134 in forward, code: return F.linear(input, self.weight, self.bias)
    linear_82: "f16[1, 1280]" = torch.ops.aten.linear.default(silu_32, arg256_1, arg257_1);  silu_32 = arg256_1 = arg257_1 = None
    
    # File: /home/newub/w/PersonaLive/.venv/lib/python3.10/site-packages/diffusers/models/resnet.py:351 in forward, code: temb = self.time_emb_proj(temb)[:, :, None, None]
    unsqueeze_22: "f16[1, 1280, 1]" = torch.ops.aten.unsqueeze.default(linear_82, 2);  linear_82 = None
    unsqueeze_23: "f16[1, 1280, 1, 1]" = torch.ops.aten.unsqueeze.default(unsqueeze_22, 3);  unsqueeze_22 = None
    
    # File: /home/newub/w/PersonaLive/.venv/lib/python3.10/site-packages/diffusers/models/resnet.py:355 in forward, code: hidden_states = hidden_states + temb
    add_48: "f16[1, 1280, 8, 8]" = torch.ops.aten.add.Tensor(conv2d_40, unsqueeze_23);  conv2d_40 = unsqueeze_23 = None
    
    # File: /home/newub/w/PersonaLive/.venv/lib/python3.10/site-packages/torch/nn/modules/normalization.py:327 in forward, code: return F.group_norm(input, self.num_groups, self.weight, self.bias, self.eps)
    group_norm_28: "f16[1, 1280, 8, 8]" = torch.ops.aten.group_norm.default(add_48, 32, arg258_1, arg259_1, 1e-05, False);  add_48 = arg258_1 = arg259_1 = None
    
    # File: /home/newub/w/PersonaLive/.venv/lib/python3.10/site-packages/torch/nn/modules/activation.py:475 in forward, code: return F.silu(input, inplace=self.inplace)
    silu_33: "f16[1, 1280, 8, 8]" = torch.ops.aten.silu.default(group_norm_28);  group_norm_28 = None
    
    # File: /home/newub/w/PersonaLive/.venv/lib/python3.10/site-packages/torch/nn/modules/dropout.py:73 in forward, code: return F.dropout(input, self.p, self.training, self.inplace)
    dropout_31: "f16[1, 1280, 8, 8]" = torch.ops.aten.dropout.default(silu_33, 0.0, False);  silu_33 = None
    
    # File: /home/newub/w/PersonaLive/.venv/lib/python3.10/site-packages/torch/nn/modules/conv.py:553 in forward, code: return self._conv_forward(input, self.weight, self.bias)
    conv2d_41: "f16[1, 1280, 8, 8]" = torch.ops.aten.conv2d.default(dropout_31, arg260_1, arg261_1, [1, 1], [1, 1]);  dropout_31 = arg260_1 = arg261_1 = None
    conv2d_42: "f16[1, 1280, 8, 8]" = torch.ops.aten.conv2d.default(cat_2, arg262_1, arg263_1);  cat_2 = arg262_1 = arg263_1 = None
    
    # File: /home/newub/w/PersonaLive/.venv/lib/python3.10/site-packages/diffusers/models/resnet.py:376 in forward, code: output_tensor = (input_tensor + hidden_states) / self.output_scale_factor
    add_49: "f16[1, 1280, 8, 8]" = torch.ops.aten.add.Tensor(conv2d_42, conv2d_41);  conv2d_42 = conv2d_41 = None
    div_25: "f16[1, 1280, 8, 8]" = torch.ops.aten.div.Tensor(add_49, 1.0);  add_49 = None
    
…
    # File: /home/newub/w/PersonaLive/.venv/lib/python3.10/site-packages/diffusers/models/resnet.py:351 in forward, code: temb = self.time_emb_proj(temb)[:, :, None, None]
    unsqueeze_40: "f16[1, 320, 1]" = torch.ops.aten.unsqueeze.default(linear_151, 2);  linear_151 = None
    unsqueeze_41: "f16[1, 320, 1, 1]" = torch.ops.aten.unsqueeze.default(unsqueeze_40, 3);  unsqueeze_40 = None
    
    # File: /home/newub/w/PersonaLive/.venv/lib/python3.10/site-packages/diffusers/models/resnet.py:355 in forward, code: hidden_states = hidden_states + temb
    add_90: "f16[1, 320, 64, 64]" = torch.ops.aten.add.Tensor(conv2d_82, unsqueeze_41);  conv2d_82 = unsqueeze_41 = None
    
    # File: /home/newub/w/PersonaLive/.venv/lib/python3.10/site-packages/torch/nn/modules/normalization.py:327 in forward, code: return F.group_norm(input, self.num_groups, self.weight, self.bias, self.eps)
    group_norm_52: "f16[1, 320, 64, 64]" = torch.ops.aten.group_norm.default(add_90, 32, arg606_1, arg607_1, 1e-05, False);  add_90 = arg606_1 = arg607_1 = None
    
    # File: /home/newub/w/PersonaLive/.venv/lib/python3.10/site-packages/torch/nn/modules/activation.py:475 in forward, code: return F.silu(input, inplace=self.inplace)
    silu_60: "f16[1, 320, 64, 64]" = torch.ops.aten.silu.default(group_norm_52);  group_norm_52 = None
    
    # File: /home/newub/w/PersonaLive/.venv/lib/python3.10/site-packages/torch/nn/modules/dropout.py:73 in forward, code: return F.dropout(input, self.p, self.training, self.inplace)
    dropout_58: "f16[1, 320, 64, 64]" = torch.ops.aten.dropout.default(silu_60, 0.0, False);  silu_60 = None
    
    # File: /home/newub/w/PersonaLive/.venv/lib/python3.10/site-packages/torch/nn/modules/conv.py:553 in forward, code: return self._conv_forward(input, self.weight, self.bias)
    conv2d_83: "f16[1, 320, 64, 64]" = torch.ops.aten.conv2d.default(dropout_58, arg608_1, arg609_1, [1, 1], [1, 1]);  dropout_58 = arg608_1 = arg609_1 = None
    conv2d_84: "f16[1, 320, 64, 64]" = torch.ops.aten.conv2d.default(cat_11, arg610_1, arg611_1);  cat_11 = arg610_1 = arg611_1 = None
    
    # File: /home/newub/w/PersonaLive/.venv/lib/python3.10/site-packages/diffusers/models/resnet.py:376 in forward, code: output_tensor = (input_tensor + hidden_states) / self.output_scale_factor
    add_91: "f16[1, 320, 64, 64]" = torch.ops.aten.add.Tensor(conv2d_84, conv2d_83);  conv2d_84 = conv2d_83 = None
    div_46: "f16[1, 320, 64, 64]" = torch.ops.aten.div.Tensor(add_91, 1.0);  add_91 = None
    
    # File: /home/newub/w/PersonaLive/.venv/lib/python3.10/site-packages/torch/nn/modules/normalization.py:327 in forward, code: return F.group_norm(input, self.num_groups, self.weight, self.bias, self.eps)
    group_norm_53: "f16[1, 320, 64, 64]" = torch.ops.aten.group_norm.default(div_46, 32, arg522_1, arg523_1, 1e-06, False);  arg522_1 = arg523_1 = None
    
    # File: /home/newub/w/PersonaLive/.venv/lib/python3.10/site-packages/torch/nn/modules/conv.py:553 in forward, code: return self._conv_forward(input, self.weight, self.bias)
    conv2d_85: "f16[1, 320, 64, 64]" = torch.ops.aten.conv2d.default(group_norm_53, arg524_1, arg525_1);  group_norm_53 = arg524_1 = arg525_1 = None
    
    # File: /home/newub/w/PersonaLive/src/models/transformer_2d.py:306 in forward, code: hidden_states = hidden_states.permute(0, 2, 3, 1).reshape(
    permute_26: "f16[1, 64, 64, 320]" = torch.ops.aten.permute.default(conv2d_85, [0, 2, 3, 1]);  conv2d_85 = None
    reshape_65: "f16[1, 4096, 320]" = torch.ops.aten.reshape.default(permute_26, [1, 4096, 320]);  permute_26 = None
    
    # File: /home/newub/w/PersonaLive/src/models/transformer_2d.py:328 in forward, code: ref_feature = hidden_states.reshape(batch, height, width, inner_dim)
    reshape_66: "f16[1, 64, 64, 320]" = torch.ops.aten.reshape.default(reshape_65, [1, 64, 64, 320]);  reshape_66 = None
    
    # File: /home/newub/w/PersonaLive/.venv/lib/python3.10/site-packages/torch/nn/modules/normalization.py:229 in forward, code: return F.layer_norm(
    layer_norm_39: "f16[1, 4096, 320]" = torch.ops.aten.layer_norm.default(reshape_65, [320], arg526_1, arg527_1, 1e-05, False);  arg526_1 = arg527_1 = None
    
    # File: /home/newub/w/PersonaLive/src/models/transformer_2d.py:356 in forward, code: hidden_states = block(
    clone_13: "f16[1, 4096, 320]" = torch.ops.aten.clone.default(layer_norm_39);  clone_13 = None
    
    # File: /home/newub/w/PersonaLive/.venv/lib/python3.10/site-packages/torch/nn/modules/linear.py:134 in forward, code: return F.linear(input, self.weight, self.bias)
    linear_152: "f16[1, 4096, 320]" = torch.ops.aten.linear.default(layer_norm_39, arg528_1);  arg528_1 = None
    linear_153: "f16[1, 4096, 320]" = torch.ops.aten.linear.default(layer_norm_39, arg529_1);  arg529_1 = None
    linear_154: "f16[1, 4096, 320]" = torch.ops.aten.linear.default(layer_norm_39, arg530_1);  layer_norm_39 = arg530_1 = None
    
    # File: /home/newub/w/PersonaLive/.venv/lib/python3.10/site-packages/diffusers/models/attention_processor.py:522 in forward, code: return self.processor(
    view_78: "f16[1, 4096, 8, 40]" = torch.ops.aten.view.default(linear_152, [1, -1, 8, 40]);  linear_152 = None
    transpose_104: "f16[1, 8, 4096, 40]" = torch.ops.aten.transpose.int(view_78, 1, 2);  view_78 = None
    view_79: "f16[1, 4096, 8, 40]" = torch.ops.aten.view.default(linear_153, [1, -1, 8, 40]);  linear_153 = None
    transpose_105: "f16[1, 8, 4096, 40]" = torch.ops.aten.transpose.int(view_79, 1, 2);  view_79 = None
    view_80: "f16[1, 4096, 8, 40]" = torch.ops.aten.view.default(linear_154, [1, -1, 8, 40]);  linear_154 = None
    transpose_106: "f16[1, 8, 4096, 40]" = torch.ops.aten.transpose.int(view_80, 1, 2);  view_80 = None
    scaled_dot_product_attention_26: "f16[1, 8, 4096, 40]" = torch.ops.aten.scaled_dot_product_attention.default(transpose_104, transpose_105, transpose_106);  transpose_104 = transpose_105 = transpose_106 = None
    transpose_107: "f16[1, 4096, 8, 40]" = torch.ops.aten.transpose.int(scaled_dot_product_attention_26, 1, 2);  scaled_dot_product_attention_26 = None
    reshape_67: "f16[1, 4096, 320]" = torch.ops.aten.reshape.default(transpose_107, [1, -1, 320]);  transpose_107 = None
    to_28: "f16[1, 4096, 320]" = torch.ops.aten.to.dtype(reshape_67, torch.float16);  reshape_67 = None
    
    # File: /home/newub/w/PersonaLive/.venv/lib/python3.10/site-packages/torch/nn/modules/linear.py:134 in forward, code: return F.linear(input, self.weight, self.bias)
    linear_155: "f16[1, 4096, 320]" = torch.ops.aten.linear.default(to_28, arg531_1, arg532_1);  to_28 = arg531_1 = arg532_1 = None
    
    # File: /home/newub/w/PersonaLive/.venv/lib/python3.10/site-packages/torch/nn/modules/dropout.py:73 in forward, code: return F.dropout(input, self.p, self.training, self.inplace)
    dropout_59: "f16[1, 4096, 320]" = torch.ops.aten.dropout.default(linear_155, 0.0, False);  linear_155 = None
    
    # File: /home/newub/w/PersonaLive/.venv/lib/python3.10/site-packages/diffusers/models/attention_processor.py:522 in forward, code: return self.processor(
    div_47: "f16[1, 4096, 320]" = torch.ops.aten.div.Tensor(dropout_59, 1.0);  dropout_59 = None
    
    # File: /home/newub/w/PersonaLive/src/models/transformer_2d.py:356 in forward, code: hidden_states = block(
    add_92: "f16[1, 4096, 320]" = torch.ops.aten.add.Tensor(div_47, reshape_65);  div_47 = reshape_65 = None
    
    # File: /home/newub/w/PersonaLive/.venv/lib/python3.10/site-packages/torch/nn/modules/normalization.py:229 in forward, code: return F.layer_norm(
    layer_norm_40: "f16[1, 4096, 320]" = torch.ops.aten.layer_norm.default(add_92, [320], arg533_1, arg534_1, 1e-05, False);  arg533_1 = arg534_1 = None
    
    # File: /home/newub/w/PersonaLive/.venv/lib/python3.10/site-packages/torch/nn/modules/linear.py:134 in forward, code: return F.linear(input, self.weight, self.bias)
    linear_156: "f16[1, 4096, 320]" = torch.ops.aten.linear.default(layer_norm_40, arg535_1);  layer_norm_40 = arg535_1 = None
    linear_157: "f16[1, 1, 320]" = torch.ops.aten.linear.default(arg684_1, arg536_1);  arg536_1 = None
    linear_158: "f16[1, 1, 320]" = torch.ops.aten.linear.default(arg684_1, arg537_1);  arg537_1 = None
    
    # File: /home/newub/w/PersonaLive/.venv/lib/python3.10/site-packages/diffusers/models/attention_processor.py:522 in forward, code: return self.processor(
    view_81: "f16[1, 4096, 8, 40]" = torch.ops.aten.view.default(linear_156, [1, -1, 8, 40]);  linear_156 = None
    transpose_108: "f16[1, 8, 4096, 40]" = torch.ops.aten.transpose.int(view_81, 1, 2);  view_81 = None
    view_82: "f16[1, 1, 8, 40]" = torch.ops.aten.view.default(linear_157, [1, -1, 8, 40]);  linear_157 = None
    transpose_109: "f16[1, 8, 1, 40]" = torch.ops.aten.transpose.int(view_82, 1, 2);  view_82 = None
    view_83: "f16[1, 1, 8, 40]" = torch.ops.aten.view.default(linear_158, [1, -1, 8, 40]);  linear_158 = None
    transpose_110: "f16[1, 8, 1, 40]" = torch.ops.aten.transpose.int(view_83, 1, 2);  view_83 = None
    scaled_dot_product_attention_27: "f16[1, 8, 4096, 40]" = torch.ops.aten.scaled_dot_product_attention.default(transpose_108, transpose_109, transpose_110);  transpose_108 = transpose_109 = transpose_110 = None
    transpose_111: "f16[1, 4096, 8, 40]" = torch.ops.aten.transpose.int(scaled_dot_product_attention_27, 1, 2);  scaled_dot_product_attention_27 = None
    reshape_68: "f16[1, 4096, 320]" = torch.ops.aten.reshape.default(transpose_111, [1, -1, 320]);  transpose_111 = None
    to_29: "f16[1, 4096, 320]" = torch.ops.aten.to.dtype(reshape_68, torch.float16);  reshape_68 = None
    
    # File: /home/newub/w/PersonaLive/.venv/lib/python3.10/site-packages/torch/nn/modules/linear.py:134 in forward, code: return F.linear(input, self.weight, self.bias)
    linear_159: "f16[1, 4096, 320]" = torch.ops.aten.linear.default(to_29, arg538_1, arg539_1);  to_29 = arg538_1 = arg539_1 = None
    
    # File: /home/newub/w/PersonaLive/.venv/lib/python3.10/site-packages/torch/nn/modules/dropout.py:73 in forward, code: return F.dropout(input, self.p, self.training, self.inplace)
    dropout_60: "f16[1, 4096, 320]" = torch.ops.aten.dropout.default(linear_159, 0.0, False);  linear_159 = None
    
    # File: /home/newub/w/PersonaLive/.venv/lib/python3.10/site-packages/diffusers/models/attention_processor.py:522 in forward, code: return self.processor(
    div_48: "f16[1, 4096, 320]" = torch.ops.aten.div.Tensor(dropout_60, 1.0);  dropout_60 = None
    
    # File: /home/newub/w/PersonaLive/src/models/transformer_2d.py:356 in forward, code: hidden_states = block(
    add_93: "f16[1, 4096, 320]" = torch.ops.aten.add.Tensor(div_48, add_92);  div_48 = add_92 = None
    
    # File: /home/newub/w/PersonaLive/.venv/lib/python3.10/site-packages/torch/nn/modules/normalization.py:229 in forward, code: return F.layer_norm(
    layer_norm_41: "f16[1, 4096, 320]" = torch.ops.aten.layer_norm.default(add_93, [320], arg540_1, arg541_1, 1e-05, False);  arg540_1 = arg541_1 = None
    
    # File: /home/newub/w/PersonaLive/.venv/lib/python3.10/site-packages/torch/nn/modules/linear.py:134 in forward, code: return F.linear(input, self.weight, self.bias)
    linear_160: "f16[1, 4096, 2560]" = torch.ops.aten.linear.default(layer_norm_41, arg542_1, arg543_1);  layer_norm_41 = arg542_1 = arg543_1 = None
    
    # File: /home/newub/w/PersonaLive/.venv/lib/python3.10/site-packages/diffusers/models/activations.py:102 in forward, code: hidden_states, gate = self.proj(hidden_states).chunk(2, dim=-1)
    chunk_13 = torch.ops.aten.chunk.default(linear_160, 2, -1);  linear_160 = None
    getitem_26: "f16[1, 4096, 1280]" = chunk_13[0]
    getitem_27: "f16[1, 4096, 1280]" = chunk_13[1];  chunk_13 = None
    
    # File: /home/newub/w/PersonaLive/.venv/lib/python3.10/site-packages/diffusers/models/activations.py:103 in forward, code: return hidden_states * self.gelu(gate)
    gelu_13: "f16[1, 4096, 1280]" = torch.ops.aten.gelu.default(getitem_27);  getitem_27 = None
    mul_16: "f16[1, 4096, 1280]" = torch.ops.aten.mul.Tensor(getitem_26, gelu_13);  getitem_26 = gelu_13 = None
    
    # File: /home/newub/w/PersonaLive/.venv/lib/python3.10/site-packages/torch/nn/modules/dropout.py:73 in forward, code: return F.dropout(input, self.p, self.training, self.inplace)
    dropout_61: "f16[1, 4096, 1280]" = torch.ops.aten.dropout.default(mul_16, 0.0, False);  mul_16 = None
    
    # File: /home/newub/w/PersonaLive/.venv/lib/python3.10/site-packages/torch/nn/modules/linear.py:134 in forward, code: return F.linear(input, self.weight, self.bias)
    linear_161: "f16[1, 4096, 320]" = torch.ops.aten.linear.default(dropout_61, arg544_1, arg545_1);  dropout_61 = arg544_1 = arg545_1 = None
    
    # File: /home/newub/w/PersonaLive/src/models/transformer_2d.py:356 in forward, code: hidden_states = block(
    add_94: "f16[1, 4096, 320]" = torch.ops.aten.add.Tensor(linear_161, add_93);  linear_161 = add_93 = None
    
    # File: /home/newub/w/PersonaLive/src/models/transformer_2d.py:370 in forward, code: hidden_states.reshape(batch, height, width, inner_dim)
    reshape_69: "f16[1, 64, 64, 320]" = torch.ops.aten.reshape.default(add_94, [1, 64, 64, 320]);  add_94 = None
    
    # File: /home/newub/w/PersonaLive/src/models/transformer_2d.py:371 in forward, code: .permute(0, 3, 1, 2)
    permute_27: "f16[1, 320, 64, 64]" = torch.ops.aten.permute.default(reshape_69, [0, 3, 1, 2]);  reshape_69 = None
    
    # File: /home/newub/w/PersonaLive/src/models/transformer_2d.py:372 in forward, code: .contiguous()
    contiguous_13: "f16[1, 320, 64, 64]" = torch.ops.aten.contiguous.default(permute_27);  permute_27 = None
    
    # File: /home/newub/w/PersonaLive/.venv/lib/python3.10/site-packages/torch/nn/modules/conv.py:553 in forward, code: return self._conv_forward(input, self.weight, self.bias)
    conv2d_86: "f16[1, 320, 64, 64]" = torch.ops.aten.conv2d.default(contiguous_13, arg546_1, arg547_1);  contiguous_13 = arg546_1 = arg547_1 = None
    
    # File: /home/newub/w/PersonaLive/src/models/transformer_2d.py:391 in forward, code: output = hidden_states + residual
    add_95: "f16[1, 320, 64, 64]" = torch.ops.aten.add.Tensor(conv2d_86, div_46);  conv2d_86 = div_46 = None
    
    # File: /home/newub/w/PersonaLive/src/models/unet_2d_blocks.py:911 in forward, code: hidden_states = torch.cat([hidden_states, res_hidden_states], dim=1)
    cat_12: "f16[1, 640, 64, 64]" = torch.ops.aten.cat.default([add_95, add_5], 1);  add_95 = add_5 = None
    
    # File: /home/newub/w/PersonaLive/.venv/lib/python3.10/site-packages/torch/nn/modules/normalization.py:327 in forward, code: return F.group_norm(input, self.num_groups, self.weight, self.bias, self.eps)
    group_norm_54: "f16[1, 640, 64, 64]" = torch.ops.aten.group_norm.default(cat_12, 32, arg612_1, arg613_1, 1e-05, False);  arg612_1 = arg613_1 = None
    
    # File: /home/newub/w/PersonaLive/.venv/lib/python3.10/site-packages/torch/nn/modules/activation.py:475 in forward, code: return F.silu(input, inplace=self.inplace)
    silu_61: "f16[1, 640, 64, 64]" = torch.ops.aten.silu.default(group_norm_54);  group_norm_54 = None
    
    # File: /home/newub/w/PersonaLive/.venv/lib/python3.10/site-packages/torch/nn/modules/conv.py:553 in forward, code: return self._conv_forward(input, self.weight, self.bias)
    conv2d_87: "f16[1, 320, 64, 64]" = torch.ops.aten.conv2d.default(silu_61, arg614_1, arg615_1, [1, 1], [1, 1]);  silu_61 = arg614_1 = arg615_1 = None
    
    # File: /home/newub/w/PersonaLive/.venv/lib/python3.10/site-packages/torch/nn/modules/activation.py:475 in forward, code: return F.silu(input, inplace=self.inplace)
    silu_62: "f16[1, 1280]" = torch.ops.aten.silu.default(linear_1)
    
    # File: /home/newub/w/PersonaLive/.venv/lib/python3.10/site-packages/torch/nn/modules/linear.py:134 in forward, code: return F.linear(input, self.weight, self.bias)
    linear_162: "f16[1, 320]" = torch.ops.aten.linear.default(silu_62, arg616_1, arg617_1);  silu_62 = arg616_1 = arg617_1 = None
    
    # File: /home/newub/w/PersonaLive/.venv/lib/python3.10/site-packages/diffusers/models/resnet.py:351 in forward, code: temb = self.time_emb_proj(temb)[:, :, None, None]
    unsqueeze_42: "f16[1, 320, 1]" = torch.ops.aten.unsqueeze.default(linear_162, 2);  linear_162 = None
    unsqueeze_43: "f16[1, 320, 1, 1]" = torch.ops.aten.unsqueeze.default(unsqueeze_42, 3);  unsqueeze_42 = None
    
    # File: /home/newub/w/PersonaLive/.venv/lib/python3.10/site-packages/diffusers/models/resnet.py:355 in forward, code: hidden_states = hidden_states + temb
    add_96: "f16[1, 320, 64, 64]" = torch.ops.aten.add.Tensor(conv2d_87, unsqueeze_43);  conv2d_87 = unsqueeze_43 = None
    
    # File: /home/newub/w/PersonaLive/.venv/lib/python3.10/site-packages/torch/nn/modules/normalization.py:327 in forward, code: return F.group_norm(input, self.num_groups, self.weight, self.bias, self.eps)
    group_norm_55: "f16[1, 320, 64, 64]" = torch.ops.aten.group_norm.default(add_96, 32, arg618_1, arg619_1, 1e-05, False);  add_96 = arg618_1 = arg619_1 = None
    
    # File: /home/newub/w/PersonaLive/.venv/lib/python3.10/site-packages/torch/nn/modules/activation.py:475 in forward, code: return F.silu(input, inplace=self.inplace)
    silu_63: "f16[1, 320, 64, 64]" = torch.ops.aten.silu.default(group_norm_55);  group_norm_55 = None
    
    # File: /home/newub/w/PersonaLive/.venv/lib/python3.10/site-packages/torch/nn/modules/dropout.py:73 in forward, code: return F.dropout(input, self.p, self.training, self.inplace)
    dropout_62: "f16[1, 320, 64, 64]" = torch.ops.aten.dropout.default(silu_63, 0.0, False);  silu_63 = None
    
    # File: /home/newub/w/PersonaLive/.venv/lib/python3.10/site-packages/torch/nn/modules/conv.py:553 in forward, code: return self._conv_forward(input, self.weight, self.bias)
    conv2d_88: "f16[1, 320, 64, 64]" = torch.ops.aten.conv2d.default(dropout_62, arg620_1, arg621_1, [1, 1], [1, 1]);  dropout_62 = arg620_1 = arg621_1 = None
    conv2d_89: "f16[1, 320, 64, 64]" = torch.ops.aten.conv2d.default(cat_12, arg622_1, arg623_1);  cat_12 = arg622_1 = arg623_1 = None
    
    # File: /home/newub/w/PersonaLive/.venv/lib/python3.10/site-packages/diffusers/models/resnet.py:376 in forward, code: output_tensor = (input_tensor + hidden_states) / self.output_scale_factor
    add_97: "f16[1, 320, 64, 64]" = torch.ops.aten.add.Tensor(conv2d_89, conv2d_88);  conv2d_89 = conv2d_88 = None
    div_49: "f16[1, 320, 64, 64]" = torch.ops.aten.div.Tensor(add_97, 1.0);  add_97 = None
    
    # File: /home/newub/w/PersonaLive/.venv/lib/python3.10/site-packages/torch/nn/modules/normalization.py:327 in forward, code: return F.group_norm(input, self.num_groups, self.weight, self.bias, self.eps)
    group_norm_56: "f16[1, 320, 64, 64]" = torch.ops.aten.group_norm.default(div_49, 32, arg548_1, arg549_1, 1e-06, False);  arg548_1 = arg549_1 = None
    
    # File: /home/newub/w/PersonaLive/.venv/lib/python3.10/site-packages/torch/nn/modules/conv.py:553 in forward, code: return self._conv_forward(input, self.weight, self.bias)
    conv2d_90: "f16[1, 320, 64, 64]" = torch.ops.aten.conv2d.default(group_norm_56, arg550_1, arg551_1);  group_norm_56 = arg550_1 = arg551_1 = None
    
    # File: /home/newub/w/PersonaLive/src/models/transformer_2d.py:306 in forward, code: hidden_states = hidden_states.permute(0, 2, 3, 1).reshape(
    permute_28: "f16[1, 64, 64, 320]" = torch.ops.aten.permute.default(conv2d_90, [0, 2, 3, 1]);  conv2d_90 = None
    reshape_70: "f16[1, 4096, 320]" = torch.ops.aten.reshape.default(permute_28, [1, 4096, 320]);  permute_28 = None
    
    # File: /home/newub/w/PersonaLive/src/models/transformer_2d.py:328 in forward, code: ref_feature = hidden_states.reshape(batch, height, width, inner_dim)
    reshape_71: "f16[1, 64, 64, 320]" = torch.ops.aten.reshape.default(reshape_70, [1, 64, 64, 320]);  reshape_71 = None
    
    # File: /home/newub/w/PersonaLive/.venv/lib/python3.10/site-packages/torch/nn/modules/normalization.py:229 in forward, code: return F.layer_norm(
    layer_norm_42: "f16[1, 4096, 320]" = torch.ops.aten.layer_norm.default(reshape_70, [320], arg552_1, arg553_1, 1e-05, False);  arg552_1 = arg553_1 = None
    
    # File: /home/newub/w/PersonaLive/src/models/transformer_2d.py:356 in forward, code: hidden_states = block(
    clone_14: "f16[1, 4096, 320]" = torch.ops.aten.clone.default(layer_norm_42);  clone_14 = None
    
    # File: /home/newub/w/PersonaLive/.venv/lib/python3.10/site-packages/torch/nn/modules/linear.py:134 in forward, code: return F.linear(input, self.weight, self.bias)
    linear_163: "f16[1, 4096, 320]" = torch.ops.aten.linear.default(layer_norm_42, arg554_1);  arg554_1 = None
    linear_164: "f16[1, 4096, 320]" = torch.ops.aten.linear.default(layer_norm_42, arg555_1);  arg555_1 = None
    linear_165: "f16[1, 4096, 320]" = torch.ops.aten.linear.default(layer_norm_42, arg556_1);  layer_norm_42 = arg556_1 = None
    
    # File: /home/newub/w/PersonaLive/.venv/lib/python3.10/site-packages/diffusers/models/attention_processor.py:522 in forward, code: return self.processor(
    view_84: "f16[1, 4096, 8, 40]" = torch.ops.aten.view.default(linear_163, [1, -1, 8, 40]);  linear_163 = None
    transpose_112: "f16[1, 8, 4096, 40]" = torch.ops.aten.transpose.int(view_84, 1, 2);  view_84 = None
    view_85: "f16[1, 4096, 8, 40]" = torch.ops.aten.view.default(linear_164, [1, -1, 8, 40]);  linear_164 = None
    transpose_113: "f16[1, 8, 4096, 40]" = torch.ops.aten.transpose.int(view_85, 1, 2);  view_85 = None
    view_86: "f16[1, 4096, 8, 40]" = torch.ops.aten.view.default(linear_165, [1, -1, 8, 40]);  linear_165 = None
    transpose_114: "f16[1, 8, 4096, 40]" = torch.ops.aten.transpose.int(view_86, 1, 2);  view_86 = None
    scaled_dot_product_attention_28: "f16[1, 8, 4096, 40]" = torch.ops.aten.scaled_dot_product_attention.default(transpose_112, transpose_113, transpose_114);  transpose_112 = transpose_113 = transpose_114 = None
    transpose_115: "f16[1, 4096, 8, 40]" = torch.ops.aten.transpose.int(scaled_dot_product_attention_28, 1, 2);  scaled_dot_product_attention_28 = None
    reshape_72: "f16[1, 4096, 320]" = torch.ops.aten.reshape.default(transpose_115, [1, -1, 320]);  transpose_115 = None
    to_30: "f16[1, 4096, 320]" = torch.ops.aten.to.dtype(reshape_72, torch.float16);  reshape_72 = None
    
    # File: /home/newub/w/PersonaLive/.venv/lib/python3.10/site-packages/torch/nn/modules/linear.py:134 in forward, code: return F.linear(input, self.weight, self.bias)
    linear_166: "f16[1, 4096, 320]" = torch.ops.aten.linear.default(to_30, arg557_1, arg558_1);  to_30 = arg557_1 = arg558_1 = None
    
    # File: /home/newub/w/PersonaLive/.venv/lib/python3.10/site-packages/torch/nn/modules/dropout.py:73 in forward, code: return F.dropout(input, self.p, self.training, self.inplace)
    dropout_63: "f16[1, 4096, 320]" = torch.ops.aten.dropout.default(linear_166, 0.0, False);  linear_166 = None
    
    # File: /home/newub/w/PersonaLive/.venv/lib/python3.10/site-packages/diffusers/models/attention_processor.py:522 in forward, code: return self.processor(
    div_50: "f16[1, 4096, 320]" = torch.ops.aten.div.Tensor(dropout_63, 1.0);  dropout_63 = None
    
    # File: /home/newub/w/PersonaLive/src/models/transformer_2d.py:356 in forward, code: hidden_states = block(
    add_98: "f16[1, 4096, 320]" = torch.ops.aten.add.Tensor(div_50, reshape_70);  div_50 = reshape_70 = None
    
    # File: /home/newub/w/PersonaLive/.venv/lib/python3.10/site-packages/torch/nn/modules/normalization.py:229 in forward, code: return F.layer_norm(
    layer_norm_43: "f16[1, 4096, 320]" = torch.ops.aten.layer_norm.default(add_98, [320], arg559_1, arg560_1, 1e-05, False);  arg559_1 = arg560_1 = None
    
    # File: /home/newub/w/PersonaLive/.venv/lib/python3.10/site-packages/torch/nn/modules/linear.py:134 in forward, code: return F.linear(input, self.weight, self.bias)
    linear_167: "f16[1, 4096, 320]" = torch.ops.aten.linear.default(layer_norm_43, arg561_1);  layer_norm_43 = arg561_1 = None
    linear_168: "f16[1, 1, 320]" = torch.ops.aten.linear.default(arg684_1, arg562_1);  arg562_1 = None
    linear_169: "f16[1, 1, 320]" = torch.ops.aten.linear.default(arg684_1, arg563_1);  arg563_1 = None
    
    # File: /home/newub/w/PersonaLive/.venv/lib/python3.10/site-packages/diffusers/models/attention_processor.py:522 in forward, code: return self.processor(
    view_87: "f16[1, 4096, 8, 40]" = torch.ops.aten.view.default(linear_167, [1, -1, 8, 40]);  linear_167 = None
    transpose_116: "f16[1, 8, 4096, 40]" = torch.ops.aten.transpose.int(view_87, 1, 2);  view_87 = None
    view_88: "f16[1, 1, 8, 40]" = torch.ops.aten.view.default(linear_168, [1, -1, 8, 40]);  linear_168 = None
    transpose_117: "f16[1, 8, 1, 40]" = torch.ops.aten.transpose.int(view_88, 1, 2);  view_88 = None
    view_89: "f16[1, 1, 8, 40]" = torch.ops.aten.view.default(linear_169, [1, -1, 8, 40]);  linear_169 = None
    transpose_118: "f16[1, 8, 1, 40]" = torch.ops.aten.transpose.int(view_89, 1, 2);  view_89 = None
    scaled_dot_product_attention_29: "f16[1, 8, 4096, 40]" = torch.ops.aten.scaled_dot_product_attention.default(transpose_116, transpose_117, transpose_118);  transpose_116 = transpose_117 = transpose_118 = None
    transpose_119: "f16[1, 4096, 8, 40]" = torch.ops.aten.transpose.int(scaled_dot_product_attention_29, 1, 2);  scaled_dot_product_attention_29 = None
    reshape_73: "f16[1, 4096, 320]" = torch.ops.aten.reshape.default(transpose_119, [1, -1, 320]);  transpose_119 = None
    to_31: "f16[1, 4096, 320]" = torch.ops.aten.to.dtype(reshape_73, torch.float16);  reshape_73 = None
    
    # File: /home/newub/w/PersonaLive/.venv/lib/python3.10/site-packages/torch/nn/modules/linear.py:134 in forward, code: return F.linear(input, self.weight, self.bias)
    linear_170: "f16[1, 4096, 320]" = torch.ops.aten.linear.default(to_31, arg564_1, arg565_1);  to_31 = arg564_1 = arg565_1 = None
    
    # File: /home/newub/w/PersonaLive/.venv/lib/python3.10/site-packages/torch/nn/modules/dropout.py:73 in forward, code: return F.dropout(input, self.p, self.training, self.inplace)
    dropout_64: "f16[1, 4096, 320]" = torch.ops.aten.dropout.default(linear_170, 0.0, False);  linear_170 = None
    
    # File: /home/newub/w/PersonaLive/.venv/lib/python3.10/site-packages/diffusers/models/attention_processor.py:522 in forward, code: return self.processor(
    div_51: "f16[1, 4096, 320]" = torch.ops.aten.div.Tensor(dropout_64, 1.0);  dropout_64 = None
    
    # File: /home/newub/w/PersonaLive/src/models/transformer_2d.py:356 in forward, code: hidden_states = block(
    add_99: "f16[1, 4096, 320]" = torch.ops.aten.add.Tensor(div_51, add_98);  div_51 = add_98 = None
    
    # File: /home/newub/w/PersonaLive/.venv/lib/python3.10/site-packages/torch/nn/modules/normalization.py:229 in forward, code: return F.layer_norm(
    layer_norm_44: "f16[1, 4096, 320]" = torch.ops.aten.layer_norm.default(add_99, [320], arg566_1, arg567_1, 1e-05, False);  arg566_1 = arg567_1 = None
    
    # File: /home/newub/w/PersonaLive/.venv/lib/python3.10/site-packages/torch/nn/modules/linear.py:134 in forward, code: return F.linear(input, self.weight, self.bias)
    linear_171: "f16[1, 4096, 2560]" = torch.ops.aten.linear.default(layer_norm_44, arg568_1, arg569_1);  layer_norm_44 = arg568_1 = arg569_1 = None
    
    # File: /home/newub/w/PersonaLive/.venv/lib/python3.10/site-packages/diffusers/models/activations.py:102 in forward, code: hidden_states, gate = self.proj(hidden_states).chunk(2, dim=-1)
    chunk_14 = torch.ops.aten.chunk.default(linear_171, 2, -1);  linear_171 = None
    getitem_28: "f16[1, 4096, 1280]" = chunk_14[0]
    getitem_29: "f16[1, 4096, 1280]" = chunk_14[1];  chunk_14 = None
    
    # File: /home/newub/w/PersonaLive/.venv/lib/python3.10/site-packages/diffusers/models/activations.py:103 in forward, code: return hidden_states * self.gelu(gate)
    gelu_14: "f16[1, 4096, 1280]" = torch.ops.aten.gelu.default(getitem_29);  getitem_29 = None
    mul_17: "f16[1, 4096, 1280]" = torch.ops.aten.mul.Tensor(getitem_28, gelu_14);  getitem_28 = gelu_14 = None
    
    # File: /home/newub/w/PersonaLive/.venv/lib/python3.10/site-packages/torch/nn/modules/dropout.py:73 in forward, code: return F.dropout(input, self.p, self.training, self.inplace)
    dropout_65: "f16[1, 4096, 1280]" = torch.ops.aten.dropout.default(mul_17, 0.0, False);  mul_17 = None
    
    # File: /home/newub/w/PersonaLive/.venv/lib/python3.10/site-packages/torch/nn/modules/linear.py:134 in forward, code: return F.linear(input, self.weight, self.bias)
    linear_172: "f16[1, 4096, 320]" = torch.ops.aten.linear.default(dropout_65, arg570_1, arg571_1);  dropout_65 = arg570_1 = arg571_1 = None
    
    # File: /home/newub/w/PersonaLive/src/models/transformer_2d.py:356 in forward, code: hidden_states = block(
    add_100: "f16[1, 4096, 320]" = torch.ops.aten.add.Tensor(linear_172, add_99);  linear_172 = add_99 = None
    
    # File: /home/newub/w/PersonaLive/src/models/transformer_2d.py:370 in forward, code: hidden_states.reshape(batch, height, width, inner_dim)
    reshape_74: "f16[1, 64, 64, 320]" = torch.ops.aten.reshape.default(add_100, [1, 64, 64, 320]);  add_100 = None
    
    # File: /home/newub/w/PersonaLive/src/models/transformer_2d.py:371 in forward, code: .permute(0, 3, 1, 2)
    permute_29: "f16[1, 320, 64, 64]" = torch.ops.aten.permute.default(reshape_74, [0, 3, 1, 2]);  reshape_74 = None
    
    # File: /home/newub/w/PersonaLive/src/models/transformer_2d.py:372 in forward, code: .contiguous()
    contiguous_14: "f16[1, 320, 64, 64]" = torch.ops.aten.contiguous.default(permute_29);  permute_29 = None
    
    # File: /home/newub/w/PersonaLive/.venv/lib/python3.10/site-packages/torch/nn/modules/conv.py:553 in forward, code: return self._conv_forward(input, self.weight, self.bias)
    conv2d_91: "f16[1, 320, 64, 64]" = torch.ops.aten.conv2d.default(contiguous_14, arg572_1, arg573_1);  contiguous_14 = arg572_1 = arg573_1 = None
    
    # File: /home/newub/w/PersonaLive/src/models/transformer_2d.py:391 in forward, code: output = hidden_states + residual
    add_101: "f16[1, 320, 64, 64]" = torch.ops.aten.add.Tensor(conv2d_91, div_49);  conv2d_91 = div_49 = None
    
    # File: /home/newub/w/PersonaLive/src/models/unet_2d_blocks.py:911 in forward, code: hidden_states = torch.cat([hidden_states, res_hidden_states], dim=1)
    cat_13: "f16[1, 640, 64, 64]" = torch.ops.aten.cat.default([add_101, conv2d], 1);  add_101 = conv2d = None
    
    # File: /home/newub/w/PersonaLive/.venv/lib/python3.10/site-packages/torch/nn/modules/normalization.py:327 in forward, code: return F.group_norm(input, self.num_groups, self.weight, self.bias, self.eps)
    group_norm_57: "f16[1, 640, 64, 64]" = torch.ops.aten.group_norm.default(cat_13, 32, arg624_1, arg625_1, 1e-05, False);  arg624_1 = arg625_1 = None
    
    # File: /home/newub/w/PersonaLive/.venv/lib/python3.10/site-packages/torch/nn/modules/activation.py:475 in forward, code: return F.silu(input, inplace=self.inplace)
    silu_64: "f16[1, 640, 64, 64]" = torch.ops.aten.silu.default(group_norm_57);  group_norm_57 = None
    
    # File: /home/newub/w/PersonaLive/.venv/lib/python3.10/site-packages/torch/nn/modules/conv.py:553 in forward, code: return self._conv_forward(input, self.weight, self.bias)
    conv2d_92: "f16[1, 320, 64, 64]" = torch.ops.aten.conv2d.default(silu_64, arg626_1, arg627_1, [1, 1], [1, 1]);  silu_64 = arg626_1 = arg627_1 = None
    
    # File: /home/newub/w/PersonaLive/.venv/lib/python3.10/site-packages/torch/nn/modules/activation.py:475 in forward, code: return F.silu(input, inplace=self.inplace)
    silu_65: "f16[1, 1280]" = torch.ops.aten.silu.default(linear_1);  linear_1 = None
    
    # File: /home/newub/w/PersonaLive/.venv/lib/python3.10/site-packages/torch/nn/modules/linear.py:134 in forward, code: return F.linear(input, self.weight, self.bias)
    linear_173: "f16[1, 320]" = torch.ops.aten.linear.default(silu_65, arg628_1, arg629_1);  silu_65 = arg628_1 = arg629_1 = None
    
    # File: /home/newub/w/PersonaLive/.venv/lib/python3.10/site-packages/diffusers/models/resnet.py:351 in forward, code: temb = self.time_emb_proj(temb)[:, :, None, None]
    unsqueeze_44: "f16[1, 320, 1]" = torch.ops.aten.unsqueeze.default(linear_173, 2);  linear_173 = None
    unsqueeze_45: "f16[1, 320, 1, 1]" = torch.ops.aten.unsqueeze.default(unsqueeze_44, 3);  unsqueeze_44 = None
    
    # File: /home/newub/w/PersonaLive/.venv/lib/python3.10/site-packages/diffusers/models/resnet.py:355 in forward, code: hidden_states = hidden_states + temb
    add_102: "f16[1, 320, 64, 64]" = torch.ops.aten.add.Tensor(conv2d_92, unsqueeze_45);  conv2d_92 = unsqueeze_45 = None
    
    # File: /home/newub/w/PersonaLive/.venv/lib/python3.10/site-packages/torch/nn/modules/normalization.py:327 in forward, code: return F.group_norm(input, self.num_groups, self.weight, self.bias, self.eps)
    group_norm_58: "f16[1, 320, 64, 64]" = torch.ops.aten.group_norm.default(add_102, 32, arg630_1, arg631_1, 1e-05, False);  add_102 = arg630_1 = arg631_1 = None
    
    # File: /home/newub/w/PersonaLive/.venv/lib/python3.10/site-packages/torch/nn/modules/activation.py:475 in forward, code: return F.silu(input, inplace=self.inplace)
    silu_66: "f16[1, 320, 64, 64]" = torch.ops.aten.silu.default(group_norm_58);  group_norm_58 = None
    
    # File: /home/newub/w/PersonaLive/.venv/lib/python3.10/site-packages/torch/nn/modules/dropout.py:73 in forward, code: return F.dropout(input, self.p, self.training, self.inplace)
    dropout_66: "f16[1, 320, 64, 64]" = torch.ops.aten.dropout.default(silu_66, 0.0, False);  silu_66 = None
    
    # File: /home/newub/w/PersonaLive/.venv/lib/python3.10/site-packages/torch/nn/modules/conv.py:553 in forward, code: return self._conv_forward(input, self.weight, self.bias)
    conv2d_93: "f16[1, 320, 64, 64]" = torch.ops.aten.conv2d.default(dropout_66, arg632_1, arg633_1, [1, 1], [1, 1]);  dropout_66 = arg632_1 = arg633_1 = None
    conv2d_94: "f16[1, 320, 64, 64]" = torch.ops.aten.conv2d.default(cat_13, arg634_1, arg635_1);  cat_13 = arg634_1 = arg635_1 = None
    
    # File: /home/newub/w/PersonaLive/.venv/lib/python3.10/site-packages/diffusers/models/resnet.py:376 in forward, code: output_tensor = (input_tensor + hidden_states) / self.output_scale_factor
    add_103: "f16[1, 320, 64, 64]" = torch.ops.aten.add.Tensor(conv2d_94, conv2d_93);  conv2d_94 = conv2d_93 = None
    div_52: "f16[1, 320, 64, 64]" = torch.ops.aten.div.Tensor(add_103, 1.0);  add_103 = None
    
    # File: /home/newub/w/PersonaLive/.venv/lib/python3.10/site-packages/torch/nn/modules/normalization.py:327 in forward, code: return F.group_norm(input, self.num_groups, self.weight, self.bias, self.eps)
    group_norm_59: "f16[1, 320, 64, 64]" = torch.ops.aten.group_norm.default(div_52, 32, arg574_1, arg575_1, 1e-06, False);  arg574_1 = arg575_1 = None
    
    # File: /home/newub/w/PersonaLive/.venv/lib/python3.10/site-packages/torch/nn/modules/conv.py:553 in forward, code: return self._conv_forward(input, self.weight, self.bias)
    conv2d_95: "f16[1, 320, 64, 64]" = torch.ops.aten.conv2d.default(group_norm_59, arg576_1, arg577_1);  group_norm_59 = arg576_1 = arg577_1 = None
    
    # File: /home/newub/w/PersonaLive/src/models/transformer_2d.py:306 in forward, code: hidden_states = hidden_states.permute(0, 2, 3, 1).reshape(
    permute_30: "f16[1, 64, 64, 320]" = torch.ops.aten.permute.default(conv2d_95, [0, 2, 3, 1]);  conv2d_95 = None
    reshape_75: "f16[1, 4096, 320]" = torch.ops.aten.reshape.default(permute_30, [1, 4096, 320]);  permute_30 = None
    
    # File: /home/newub/w/PersonaLive/src/models/transformer_2d.py:328 in forward, code: ref_feature = hidden_states.reshape(batch, height, width, inner_dim)
    reshape_76: "f16[1, 64, 64, 320]" = torch.ops.aten.reshape.default(reshape_75, [1, 64, 64, 320]);  reshape_76 = None
    
    # File: /home/newub/w/PersonaLive/.venv/lib/python3.10/site-packages/torch/nn/modules/normalization.py:229 in forward, code: return F.layer_norm(
    layer_norm_45: "f16[1, 4096, 320]" = torch.ops.aten.layer_norm.default(reshape_75, [320], arg578_1, arg579_1, 1e-05, False);  arg578_1 = arg579_1 = None
    
    # File: /home/newub/w/PersonaLive/src/models/transformer_2d.py:356 in forward, code: hidden_states = block(
    clone_15: "f16[1, 4096, 320]" = torch.ops.aten.clone.default(layer_norm_45);  clone_15 = None
    
    # File: /home/newub/w/PersonaLive/.venv/lib/python3.10/site-packages/torch/nn/modules/linear.py:134 in forward, code: return F.linear(input, self.weight, self.bias)
    linear_174: "f16[1, 4096, 320]" = torch.ops.aten.linear.default(layer_norm_45, arg580_1);  arg580_1 = None
    linear_175: "f16[1, 4096, 320]" = torch.ops.aten.linear.default(layer_norm_45, arg581_1);  arg581_1 = None
    linear_176: "f16[1, 4096, 320]" = torch.ops.aten.linear.default(layer_norm_45, arg582_1);  layer_norm_45 = arg582_1 = None
    
    # File: /home/newub/w/PersonaLive/.venv/lib/python3.10/site-packages/diffusers/models/attention_processor.py:522 in forward, code: return self.processor(
    view_90: "f16[1, 4096, 8, 40]" = torch.ops.aten.view.default(linear_174, [1, -1, 8, 40]);  linear_174 = None
    transpose_120: "f16[1, 8, 4096, 40]" = torch.ops.aten.transpose.int(view_90, 1, 2);  view_90 = None
    view_91: "f16[1, 4096, 8, 40]" = torch.ops.aten.view.default(linear_175, [1, -1, 8, 40]);  linear_175 = None
    transpose_121: "f16[1, 8, 4096, 40]" = torch.ops.aten.transpose.int(view_91, 1, 2);  view_91 = None
    view_92: "f16[1, 4096, 8, 40]" = torch.ops.aten.view.default(linear_176, [1, -1, 8, 40]);  linear_176 = None
    transpose_122: "f16[1, 8, 4096, 40]" = torch.ops.aten.transpose.int(view_92, 1, 2);  view_92 = None
    scaled_dot_product_attention_30: "f16[1, 8, 4096, 40]" = torch.ops.aten.scaled_dot_product_attention.default(transpose_120, transpose_121, transpose_122);  transpose_120 = transpose_121 = transpose_122 = None
    transpose_123: "f16[1, 4096, 8, 40]" = torch.ops.aten.transpose.int(scaled_dot_product_attention_30, 1, 2);  scaled_dot_product_attention_30 = None
    reshape_77: "f16[1, 4096, 320]" = torch.ops.aten.reshape.default(transpose_123, [1, -1, 320]);  transpose_123 = None
    to_32: "f16[1, 4096, 320]" = torch.ops.aten.to.dtype(reshape_77, torch.float16);  reshape_77 = None
    
    # File: /home/newub/w/PersonaLive/.venv/lib/python3.10/site-packages/torch/nn/modules/linear.py:134 in forward, code: return F.linear(input, self.weight, self.bias)
    linear_177: "f16[1, 4096, 320]" = torch.ops.aten.linear.default(to_32, arg583_1, arg584_1);  to_32 = arg583_1 = arg584_1 = None
    
    # File: /home/newub/w/PersonaLive/.venv/lib/python3.10/site-packages/torch/nn/modules/dropout.py:73 in forward, code: return F.dropout(input, self.p, self.training, self.inplace)
    dropout_67: "f16[1, 4096, 320]" = torch.ops.aten.dropout.default(linear_177, 0.0, False);  linear_177 = None
    
    # File: /home/newub/w/PersonaLive/.venv/lib/python3.10/site-packages/diffusers/models/attention_processor.py:522 in forward, code: return self.processor(
    div_53: "f16[1, 4096, 320]" = torch.ops.aten.div.Tensor(dropout_67, 1.0);  dropout_67 = None
    
    # File: /home/newub/w/PersonaLive/src/models/transformer_2d.py:356 in forward, code: hidden_states = block(
    add_104: "f16[1, 4096, 320]" = torch.ops.aten.add.Tensor(div_53, reshape_75);  div_53 = reshape_75 = None
    
    # File: /home/newub/w/PersonaLive/.venv/lib/python3.10/site-packages/torch/nn/modules/normalization.py:229 in forward, code: return F.layer_norm(
    layer_norm_46: "f16[1, 4096, 320]" = torch.ops.aten.layer_norm.default(add_104, [320], arg585_1, arg586_1, 1e-05, False);  arg585_1 = arg586_1 = None
    
    # File: /home/newub/w/PersonaLive/.venv/lib/python3.10/site-packages/torch/nn/modules/linear.py:134 in forward, code: return F.linear(input, self.weight, self.bias)
    linear_178: "f16[1, 4096, 320]" = torch.ops.aten.linear.default(layer_norm_46, arg587_1);  layer_norm_46 = arg587_1 = None
    linear_179: "f16[1, 1, 320]" = torch.ops.aten.linear.default(arg684_1, arg588_1);  arg588_1 = None
    linear_180: "f16[1, 1, 320]" = torch.ops.aten.linear.default(arg684_1, arg589_1);  arg684_1 = arg589_1 = None
    
    # File: /home/newub/w/PersonaLive/.venv/lib/python3.10/site-packages/diffusers/models/attention_processor.py:522 in forward, code: return self.processor(
    view_93: "f16[1, 4096, 8, 40]" = torch.ops.aten.view.default(linear_178, [1, -1, 8, 40]);  linear_178 = None
    transpose_124: "f16[1, 8, 4096, 40]" = torch.ops.aten.transpose.int(view_93, 1, 2);  view_93 = None
    view_94: "f16[1, 1, 8, 40]" = torch.ops.aten.view.default(linear_179, [1, -1, 8, 40]);  linear_179 = None
    transpose_125: "f16[1, 8, 1, 40]" = torch.ops.aten.transpose.int(view_94, 1, 2);  view_94 = None
    view_95: "f16[1, 1, 8, 40]" = torch.ops.aten.view.default(linear_180, [1, -1, 8, 40]);  linear_180 = None
    transpose_126: "f16[1, 8, 1, 40]" = torch.ops.aten.transpose.int(view_95, 1, 2);  view_95 = None
    scaled_dot_product_attention_31: "f16[1, 8, 4096, 40]" = torch.ops.aten.scaled_dot_product_attention.default(transpose_124, transpose_125, transpose_126);  transpose_124 = transpose_125 = transpose_126 = None
    transpose_127: "f16[1, 4096, 8, 40]" = torch.ops.aten.transpose.int(scaled_dot_product_attention_31, 1, 2);  scaled_dot_product_attention_31 = None
    reshape_78: "f16[1, 4096, 320]" = torch.ops.aten.reshape.default(transpose_127, [1, -1, 320]);  transpose_127 = None
    to_33: "f16[1, 4096, 320]" = torch.ops.aten.to.dtype(reshape_78, torch.float16);  reshape_78 = None
    
    # File: /home/newub/w/PersonaLive/.venv/lib/python3.10/site-packages/torch/nn/modules/linear.py:134 in forward, code: return F.linear(input, self.weight, self.bias)
    linear_181: "f16[1, 4096, 320]" = torch.ops.aten.linear.default(to_33, arg590_1, arg591_1);  to_33 = arg590_1 = arg591_1 = None
    
    # File: /home/newub/w/PersonaLive/.venv/lib/python3.10/site-packages/torch/nn/modules/dropout.py:73 in forward, code: return F.dropout(input, self.p, self.training, self.inplace)
    dropout_68: "f16[1, 4096, 320]" = torch.ops.aten.dropout.default(linear_181, 0.0, False);  linear_181 = None
    
    # File: /home/newub/w/PersonaLive/.venv/lib/python3.10/site-packages/diffusers/models/attention_processor.py:522 in forward, code: return self.processor(
    div_54: "f16[1, 4096, 320]" = torch.ops.aten.div.Tensor(dropout_68, 1.0);  dropout_68 = None
    
    # File: /home/newub/w/PersonaLive/src/models/transformer_2d.py:356 in forward, code: hidden_states = block(
    add_105: "f16[1, 4096, 320]" = torch.ops.aten.add.Tensor(div_54, add_104);  div_54 = add_104 = None
    
    # File: /home/newub/w/PersonaLive/.venv/lib/python3.10/site-packages/torch/nn/modules/normalization.py:229 in forward, code: return F.layer_norm(
    layer_norm_47: "f16[1, 4096, 320]" = torch.ops.aten.layer_norm.default(add_105, [320], arg592_1, arg593_1, 1e-05, False);  arg592_1 = arg593_1 = None
    
    # File: /home/newub/w/PersonaLive/.venv/lib/python3.10/site-packages/torch/nn/modules/linear.py:134 in forward, code: return F.linear(input, self.weight, self.bias)
    linear_182: "f16[1, 4096, 2560]" = torch.ops.aten.linear.default(layer_norm_47, arg594_1, arg595_1);  layer_norm_47 = arg594_1 = arg595_1 = None
    
    # File: /home/newub/w/PersonaLive/.venv/lib/python3.10/site-packages/diffusers/models/activations.py:102 in forward, code: hidden_states, gate = self.proj(hidden_states).chunk(2, dim=-1)
    chunk_15 = torch.ops.aten.chunk.default(linear_182, 2, -1);  linear_182 = None
    getitem_30: "f16[1, 4096, 1280]" = chunk_15[0]
    getitem_31: "f16[1, 4096, 1280]" = chunk_15[1];  chunk_15 = None
    
    # File: /home/newub/w/PersonaLive/.venv/lib/python3.10/site-packages/diffusers/models/activations.py:103 in forward, code: return hidden_states * self.gelu(gate)
    gelu_15: "f16[1, 4096, 1280]" = torch.ops.aten.gelu.default(getitem_31);  getitem_31 = None
    mul_18: "f16[1, 4096, 1280]" = torch.ops.aten.mul.Tensor(getitem_30, gelu_15);  getitem_30 = gelu_15 = None
    
    # File: /home/newub/w/PersonaLive/.venv/lib/python3.10/site-packages/torch/nn/modules/dropout.py:73 in forward, code: return F.dropout(input, self.p, self.training, self.inplace)
    dropout_69: "f16[1, 4096, 1280]" = torch.ops.aten.dropout.default(mul_18, 0.0, False);  mul_18 = None
    
    # File: /home/newub/w/PersonaLive/.venv/lib/python3.10/site-packages/torch/nn/modules/linear.py:134 in forward, code: return F.linear(input, self.weight, self.bias)
    linear_183: "f16[1, 4096, 320]" = torch.ops.aten.linear.default(dropout_69, arg596_1, arg597_1);  dropout_69 = arg596_1 = arg597_1 = None
    
    # File: /home/newub/w/PersonaLive/src/models/transformer_2d.py:356 in forward, code: hidden_states = block(
    add_106: "f16[1, 4096, 320]" = torch.ops.aten.add.Tensor(linear_183, add_105);  linear_183 = add_105 = None
    
    # File: /home/newub/w/PersonaLive/src/models/transformer_2d.py:370 in forward, code: hidden_states.reshape(batch, height, width, inner_dim)
    reshape_79: "f16[1, 64, 64, 320]" = torch.ops.aten.reshape.default(add_106, [1, 64, 64, 320]);  add_106 = None
    
    # File: /home/newub/w/PersonaLive/src/models/transformer_2d.py:371 in forward, code: .permute(0, 3, 1, 2)
    permute_31: "f16[1, 320, 64, 64]" = torch.ops.aten.permute.default(reshape_79, [0, 3, 1, 2]);  reshape_79 = None
    
    # File: /home/newub/w/PersonaLive/src/models/transformer_2d.py:372 in forward, code: .contiguous()
    contiguous_15: "f16[1, 320, 64, 64]" = torch.ops.aten.contiguous.default(permute_31);  permute_31 = None
    
    # File: /home/newub/w/PersonaLive/.venv/lib/python3.10/site-packages/torch/nn/modules/conv.py:553 in forward, code: return self._conv_forward(input, self.weight, self.bias)
    conv2d_96: "f16[1, 320, 64, 64]" = torch.ops.aten.conv2d.default(contiguous_15, arg598_1, arg599_1);  contiguous_15 = arg598_1 = arg599_1 = None
    
    # File: /home/newub/w/PersonaLive/src/models/transformer_2d.py:391 in forward, code: output = hidden_states + residual
    add_107: "f16[1, 320, 64, 64]" = torch.ops.aten.add.Tensor(conv2d_96, div_52);  conv2d_96 = div_52 = add_107 = None
    
    # File: /home/newub/w/PersonaLive/src/models/unet_2d_condition.py:1308 in forward, code: if not return_dict:
    ne: "b8[]" = torch.ops.aten.ne.Scalar(arg685_1, 0);  arg685_1 = None
    item: "Sym(Eq(u0, 1))" = torch.ops.aten.item.default(ne);  ne = item = None
    
[bench] ttrt.compile reference_unet: FAILED — GuardOnDataDependentSymNode: Could not guard on data-dependent expression Eq(u0, 1) (unhinted: Eq(u0, 1)).  (Size-like symbols: none)

consider using data-dependent friendly APIs such as guard_or_false, guard_or_true and statically_known_true.
Caused by: (_export/non_strict_utils.py:1159 in __torch_function__)
For more information, run with TORCH_LOGS="dynamic"
For extended logs when we create symbols, also add TORCHDYNAMO_EXTENDED_DEBUG_CREATE_SYMBOL="u0"
If you suspect the guard was triggered from C++, add TORCHDYNAMO_EXTENDED_DEBUG_CPP=1
For more debugging help, see https://docs.google.com/document/d/1HSuTTVvYH1pTew89Rtpeu84Ht3nQEFTYhAX3Ypa_xJs/edit?usp=sharing

For C++ stack trace, run with TORCHDYNAMO_EXTENDED_DEBUG_CPP=1

The following call raised this error:
  File "/home/newub/w/PersonaLive/src/models/unet_2d_condition.py", line 1308, in forward
    if not return_dict:


The error above occurred when calling torch.export.export. If you would like to view some more information about this error, and get a list of all other errors that may occur in your export call, you can replace your `export()` call with `draft_export()`.
[bench] ttrt.compile vae.decode ...
[bench] ttrt.compile vae.decode: FAILED — ValueError: Tensor does not have a supported memory format, supported formats are contiguous or channel_last
[bench] warmup call with 16 frames
  0%|          | 0/7 [00:00<?, ?it/s] 14%|█▍        | 1/7 [00:00<00:01,  3.58it/s] 29%|██▊       | 2/7 [00:00<00:01,  3.80it/s] 43%|████▎     | 3/7 [00:00<00:01,  3.85it/s] 57%|█████▋    | 4/7 [00:01<00:00,  3.41it/s] 71%|███████▏  | 5/7 [00:01<00:00,  3.20it/s] 86%|████████▌ | 6/7 [00:01<00:00,  3.04it/s]100%|██████████| 7/7 [00:02<00:00,  2.96it/s]100%|██████████| 7/7 [00:02<00:00,  3.18it/s]
[bench] timed call with 100 frames (target L=100)
  0%|          | 0/28 [00:00<?, ?it/s]  4%|▎         | 1/28 [00:00<00:07,  3.62it/s]  7%|▋         | 2/28 [00:00<00:06,  3.83it/s] 11%|█         | 3/28 [00:00<00:06,  3.88it/s] 14%|█▍        | 4/28 [00:01<00:07,  3.39it/s] 18%|█▊        | 5/28 [00:01<00:07,  3.17it/s] 21%|██▏       | 6/28 [00:01<00:07,  3.07it/s] 25%|██▌       | 7/28 [00:02<00:07,  2.98it/s] 29%|██▊       | 8/28 [00:02<00:06,  2.94it/s] 32%|███▏      | 9/28 [00:02<00:06,  2.88it/s] 36%|███▌      | 10/28 [00:03<00:06,  2.79it/s] 39%|███▉      | 11/28 [00:03<00:06,  2.72it/s] 43%|████▎     | 12/28 [00:04<00:05,  2.69it/s] 46%|████▋     | 13/28 [00:04<00:05,  2.72it/s] 50%|█████     | 14/28 [00:04<00:05,  2.77it/s] 54%|█████▎    | 15/28 [00:05<00:04,  2.81it/s] 57%|█████▋    | 16/28 [00:05<00:04,  2.84it/s] 61%|██████    | 17/28 [00:05<00:03,  2.85it/s] 64%|██████▍   | 18/28 [00:06<00:03,  2.87it/s] 68%|██████▊   | 19/28 [00:06<00:03,  2.87it/s] 71%|███████▏  | 20/28 [00:06<00:02,  2.83it/s] 75%|███████▌  | 21/28 [00:07<00:02,  2.81it/s] 79%|███████▊  | 22/28 [00:07<00:02,  2.82it/s] 82%|████████▏ | 23/28 [00:07<00:01,  2.85it/s] 86%|████████▌ | 24/28 [00:08<00:01,  2.86it/s] 89%|████████▉ | 25/28 [00:08<00:01,  2.88it/s] 93%|█████████▎| 26/28 [00:08<00:00,  2.87it/s] 96%|█████████▋| 27/28 [00:09<00:00,  2.84it/s]100%|██████████| 28/28 [00:09<00:00,  2.82it/s]100%|██████████| 28/28 [00:09<00:00,  2.89it/s]
mode=torch_trt L=100 warmup=16 time=9.729s fps=10.28
[bench] saved /tmp/personalive_trt/videos/03-torch_trt.mp4
